models/bench_rw_buf_encoder.pt (torch, 350463 bytes, 6 tensors)

encoder1.weight f4 [100, 702]
0	0xbccdc4a4	-0.02511818
1	0x3b8f5305	0.0043739104
2	0x3a9c2466	0.0011912703
3	0x3cbf2ae7	0.023335887
4	0x3d4acbf4	0.04951091
5	0x3d66bd0d	0.056332637
6	0x3d8f5630	0.06998861
7	0xbceae399	-0.02867298
8	0xbd528a5c	-0.05140148
9	0xbd1dccc2	-0.03852535
10	0x3d8e511a	0.06949063
11	0x3d7a39a5	0.06109013
12	0x3daee992	0.08540644
13	0x3d23b521	0.03996766
14	0x3d027fe5	0.03186025
15	0x3d33538b	0.043780845
16	0x3d83ca47	0.06435066
17	0x3d8ef7b1	0.06980837
18	0x3cc51e83	0.0240624
19	0x3d9fd546	0.078043506
20	0x3d66bf65	0.05633487
21	0x3d93d9b7	0.0721926
22	0x3dc51b21	0.09624315
23	0x3cfca091	0.030838283
24	0x3d05ee69	0.03269807
25	0x3cbd0ffb	0.02307891
26	0x3dc0a102	0.0940571
27	0x3d81b9d8	0.06334275
28	0x3d5df109	0.054184947
29	0x3da54405	0.08069614
30	0x3d82fde2	0.063960806
31	0x3cb36d21	0.021902623
32	0x3d76bf2f	0.06024092
33	0x3d4fed8d	0.050763655
34	0x3d2eca3d	0.04267334
35	0x3d3c50ef	0.04597562
36	0x3db8f4cb	0.090310656
37	0x3d97303b	0.07382246
38	0x3d24d195	0.040238936
39	0x3d268743	0.04065634
40	0x3d8fc5ec	0.070201725
41	0x3d41b75d	0.04729401
42	0xbd38f79f	-0.045158025
43	0x3db8765f	0.090069525
44	0xbdbc0811	-0.09181226
45	0x3d28d410	0.041217864
46	0x3d5ebe4a	0.054380693
47	0x3d15bbdf	0.03655612
48	0x3d99f515	0.07517449
49	0x3d1f33aa	0.03886763
50	0xbda49344	-0.08035901
51	0xbd9c60d9	-0.0763566
52	0x3d23e95e	0.04001748
53	0x3dbf65c4	0.09345582
54	0x3d9f8e50	0.07790816
55	0x3d125765	0.035727877
56	0x3d0ab509	0.033864055
57	0x3d92d32d	0.07169185
58	0x3cf61f35	0.030044178
59	0x3d060de2	0.032728083
60	0x3d14a0f5	0.036286313
61	0x3d93f775	0.07224933
62	0x3dc0fa2e	0.09422718
63	0x3d3a3376	0.045459233
64	0x3d8a2274	0.06744853
65	0x3d8e0234	0.06934014
66	0x3dabc010	0.083862424
67	0x3d814aa8	0.06313068
68	0x3d20ffc7	0.03930643
69	0x3dbe8310	0.09302342
70	0x3d5de5a1	0.05417407
71	0x3d51823b	0.051149588
72	0x3cc75345	0.024331698
73	0x3d1138da	0.03545461
74	0x3d8259b4	0.06364766
75	0x3cf1b160	0.029503524
76	0x3d2d9257	0.04237589
77	0x3cda63c5	0.026658902
78	0x3d575755	0.05257352
79	0x3db11eb1	0.08648432
80	0x3dafd3c7	0.08585315
81	0x3d3d994b	0.04628877
82	0x3dbf9a3c	0.0935559
83	0x3d7eafef	0.062179502
84	0xbcad1ba8	-0.021131352
85	0xbd9e2f06	-0.07723813
86	0xbcffbdf0	-0.031218499
87	0x3dabd229	0.08389694
88	0xbdbda9a3	-0.09260871
89	0x3da1aed0	0.07894671
90	0x3d95a797	0.07307356
91	0x3cce8e54	0.025214352
92	0x3db5455f	0.08851122
93	0x3d0a2b60	0.033732772
94	0xbd8b8ba4	-0.06813744
95	0xbd8002d7	-0.06250542
96	0x3d6c06ee	0.057623796
97	0x3da05aa3	0.078297876
98	0x3d4c6573	0.049901437
99	0x3cb32ce3	0.02187199
100	0x3daea77d	0.085280396
101	0x3d961d60	0.073298216
102	0x3d91a501	0.0711155
103	0x3d7eb205	0.06218149
104	0x3d23d031	0.03999347
105	0x3cf99be0	0.030469835
106	0x3d946f46	0.07247786
107	0x3d5ee019	0.054412935
108	0x3cb695a9	0.02228816
109	0x3d743af5	0.05962654
110	0x3dabdbb0	0.083915114
111	0x3cc22cfc	0.02370309
112	0x3db7c703	0.08973505
113	0x3d976129	0.07391579
114	0x3d4e13c1	0.050311808
115	0x3da29e53	0.07940354
116	0x3d3b73d9	0.045764778
117	0x3d5efedf	0.054442283
118	0x3d8d0eb1	0.06887568
119	0x3d080a1b	0.033212762
120	0x3db7c45f	0.08973002
121	0x3cf2fad4	0.02966062
122	0x3d42190b	0.047387164
123	0x3d28a7c3	0.041175615
124	0x3ce1e5c3	0.02757538
125	0x3d8fcebe	0.07021855
126	0x3d7dabc9	0.061931405
127	0x3da96a7e	0.08272265
128	0x3d2cfc99	0.042233083
129	0xbd7a4772	-0.06110329
130	0xbd0f2646	-0.03494861
131	0x3db7cfe7	0.08975201
132	0xbcd5e0da	-0.026108194
133	0x3cc62ab1	0.024190279
134	0x3d95d598	0.073161304
135	0x3d9088fb	0.07057377
136	0x3d6c7709	0.05773071
137	0x3d6a58a2	0.057213433
138	0xbd565363	-0.052325618
139	0x3d876e50	0.06612837
140	0x3d69abaf	0.057048496
141	0x3d59e122	0.05319322
142	0x3d98297a	0.07429786
143	0x3d5c702b	0.05381791
144	0x3da9b7f3	0.08287039
145	0x3d719ee7	0.05898943
146	0x3d9cf5a5	0.076640405
147	0x3dc40fe4	0.095733434
148	0x3d41ff03	0.04736234
149	0x3da8e62c	0.08247027
150	0x3d369cdb	0.044583183
151	0x3d138bb3	0.0360219
152	0x3d756705	0.0599127
153	0x3dc2528c	0.09488401
154	0x3d4455ed	0.047933508
155	0x3db74acf	0.089498155
156	0x3dc60a99	0.0966999
157	0x3da80613	0.082042836
158	0x3d46c7a3	0.048530232
159	0x3d5eafa3	0.05436672
160	0x3d7a650f	0.061131533
161	0x3da9212f	0.082582824
162	0x3d4690a5	0.048477788
163	0x3d7b76dd	0.061392654
164	0x3dc4b970	0.09605682
165	0x3d554467	0.052067187
166	0x3da4aa26	0.08040266
167	0x3dc5fadc	0.09666988
168	0x3d7d912d	0.06190603
169	0x3db06522	0.086130396
170	0x3d32da4b	0.04366521
171	0x3d446c83	0.047955047
172	0x3cc86d5e	0.024466213
173	0xbd38cb91	-0.04511601
174	0xbd4964dc	-0.049168453
175	0x3da0fc4a	0.0786062
176	0xbd797cdf	-0.060910102
177	0x3cf6095d	0.030033762
178	0x3d55d0f1	0.052201215
179	0x3d3cda19	0.04610643
180	0x3d982210	0.07428372
181	0x3d9f2021	0.077698
182	0xbd30e78f	-0.04318958
183	0x3d8d9a15	0.069141544
184	0x3d7cd705	0.061728496
185	0x3cf88ead	0.03034147
186	0x3d3411d7	0.043962326
187	0x3d2aa5e5	0.041662116
188	0x3d44b657	0.048025455
189	0x3cb7755b	0.022394827
190	0x3dab0689	0.08350856
191	0x3d6fbb09	0.05852798
192	0x3d9d2ece	0.07674943
193	0x3da0bc1d	0.0784838
194	0x3cebebd8	0.028798983
195	0x3d99d35c	0.07511017
196	0x3d9226b8	0.07136291
197	0x3d4f826f	0.0506615
198	0x3d8d7ed3	0.069089554
199	0x3d3d6025	0.04623427
200	0x3d54c585	0.05194618
201	0x3db75f3e	0.08953713
202	0x3da7d95d	0.08195756
203	0x3db9c3a3	0.09070518
204	0x3d259895	0.040428717
205	0x3d9ea11c	0.07745573
206	0x3cdaa83b	0.026691547
207	0x3d2785f5	0.040899236
208	0x3d32fa1d	0.043695558
209	0x3dc39545	0.09549955
210	0x3d724d65	0.05915584
211	0x3d9b069b	0.07569619
212	0x3cd338e3	0.025783962
213	0x3d3d79af	0.046258625
214	0x3da1c3bb	0.07898661
215	0x3cecdc05	0.028913507
216	0x3d496e8e	0.0491777
217	0xbd415e88	-0.047209293
218	0xbdb6be9b	-0.08923074
219	0x3d4d4370	0.05011314
220	0x3cf878fe	0.030331131
221	0x3d931320	0.07181382
222	0x3d7e24b7	0.062046733
223	0x3d9d3897	0.07676809
224	0x3da741f1	0.08166874
225	0x3d34421e	0.044008367
226	0xbd3f5548	-0.04671219
227	0xbd896180	-0.0670805
228	0x3dc18cb4	0.09450665
229	0x3d097f40	0.03356862
230	0x3d9f477e	0.07777308
231	0x3db4091c	0.087908
232	0x3d6dd537	0.058064666
233	0x3dbc67a9	0.09199459
234	0x3d093c1e	0.033504598
235	0x3dacc1b3	0.08435383
236	0x3cd11bcb	0.025525948
237	0x3d60c70d	0.05487733
238	0x3d5b8633	0.05359478
239	0x3db0d489	0.08634288
240	0x3d733b0f	0.059382495
241	0x3db923f2	0.09040059
242	0x3d6c9519	0.057759378
243	0x3d9f25a4	0.07770851
244	0x3d7f95af	0.06239861
245	0x3cc56139	0.024094211
246	0x3d6820b5	0.056671817
247	0x3d8c8d27	0.0686286
248	0x3d8de8fc	0.06929204
249	0x3dbd5bee	0.0924605
250	0x3d585f99	0.052825544
251	0x3d3abe09	0.045591388
252	0x3d97f526	0.07419805
253	0x3d6dea9d	0.058085073
254	0x3db45ed0	0.088071465
255	0x3d871a06	0.065967605

encoder1.bias f4 [100]
0	0xbda75bcd	-0.081718065
1	0xbd25b18a	-0.040452518
2	0xbd1633aa	-0.036670364
3	0xbd3f6e27	-0.04673591
4	0xbd48984a	-0.04897336
5	0xbd84f0d3	-0.06491246
6	0xbd9743fc	-0.07386014
7	0xbce6f46b	-0.02819272
8	0xbcb9985f	-0.022655664
9	0xbd3c3ba8	-0.04595533
10	0xbda39cc6	-0.079888865
11	0xbdb54f0c	-0.088529676
12	0xbbfed5df	-0.0077769603
13	0xbdde3c56	-0.10851352
14	0xbd9734aa	-0.07383092
15	0xbd44eb4b	-0.048075955
16	0x3b345512	0.0027516526
17	0xbda4aaa1	-0.080403574
18	0x3bea21c8	0.0071451403
19	0xbd21ebc1	-0.039531473
20	0xbd815b60	-0.063162565
21	0xbd2aadd5	-0.041669685
22	0xbd9e95de	-0.07743429
23	0xbd23b1b1	-0.03996438
24	0xbda277fe	-0.07933043
25	0xbd4f8834	-0.050667003
26	0x3c8ee8a5	0.017444918
27	0xbd027125	-0.031846184
28	0xbda5a7d4	-0.08088651
29	0xbdc3e5ac	-0.09565291
30	0xbd871e65	-0.06597594
31	0x3d3611ef	0.044450697
32	0xbd30d95f	-0.04317605
33	0xbd033971	-0.032037202
34	0xbd277538	-0.040883273
35	0xbc8694d9	-0.016428398
36	0xbd93fbc4	-0.07225755
37	0xbda27250	-0.0793196
38	0xbdc56a61	-0.09639431
39	0xbd50e1b8	-0.050996512
40	0xbd27339b	-0.0408207
41	0xbd9be715	-0.07612435
42	0xbd93bd3a	-0.072138265
43	0xbd771b01	-0.060328487
44	0xbd9d57bd	-0.076827504
45	0xbd0cd644	-0.034384027
46	0xbdbeaad3	-0.09309926
47	0xbd852121	-0.065004595
48	0xbcef2411	-0.029192002
49	0xbcfc35e1	-0.03078741
50	0xbd92c9a2	-0.07167365
51	0xbbced80a	-0.006312375
52	0xbc7768ec	-0.015100699
53	0x3c544bbe	0.0129575115
54	0xbcc6d32a	-0.024270613
55	0xbd59c78d	-0.053168822
56	0xbdc1668f	-0.094433896
57	0xbdc56d86	-0.096400306
58	0xbdc88a45	-0.09791998
59	0xbd24ad77	-0.04020449
60	0xbda41a9a	-0.08012886
61	0xbd04fd01	-0.032467846
62	0xbd0680b4	-0.032837585
63	0xbc4287ab	-0.011873166
64	0xbdb362ee	-0.08759104
65	0xbdbe2407	-0.092842154
66	0xbcc99550	-0.02460733
67	0xbd65d2c2	-0.056109197
68	0xbd6de91a	-0.05808363
69	0xbd87ac75	-0.066246904
70	0xbd04011a	-0.032227613
71	0xbda7badc	-0.081899375
72	0xbd7e10ce	-0.062027745
73	0xbce3afc1	-0.027793767
74	0xbcb36723	-0.021899765
75	0x3b681a5f	0.003541611
76	0xbc6294f9	-0.013829463
77	0xbd17a8fc	-0.03702639
78	0xbdc75dab	-0.097346626
79	0xbd804f79	-0.06265158
80	0xbdc49298	-0.09598273
81	0xbd57465e	-0.05255734
82	0xbc8a9515	-0.016916791
83	0xbc6a1b22	-0.0142886955
84	0xbd34d6d7	-0.0441502
85	0xbd563541	-0.05229688
86	0xbca64dd8	-0.02030079
87	0xbd89aa32	-0.06721915
88	0xbd12cde4	-0.035840884
89	0xbc9a4bb4	-0.018834926
90	0xbcea59b1	-0.028607221
91	0xbd648955	-0.055795033
92	0xbd25dcae	-0.04049366
93	0xbd0197bb	-0.031638842
94	0xbd9fb45c	-0.07798073
95	0xbc646b04	-0.01394153
96	0xbc98def6	-0.018661004
97	0xbdbd01e5	-0.09228877
98	0x3c96cb92	0.018407617
99	0xbda98d9d	-0.08278964

encoder2.weight f4 [20, 100]
0	0x3cf4b298	0.029870316
1	0x3d96b545	0.07358793
2	0xbd460d2f	-0.048352417
3	0xbcdf5252	-0.027260933
4	0x3e0151b9	0.12628831
5	0xbd8e1b47	-0.069387965
6	0xbd14213d	-0.03616451
7	0x3dd58de1	0.10427452
8	0x3d471c58	0.048611015
9	0x3dcb7301	0.09934045
10	0xbda02d96	-0.07821195
11	0x3dd4b14d	0.1038538
12	0x3dac5355	0.08414332
13	0xbc0ee420	-0.008721381
14	0xbd50a964	-0.050942793
15	0x3befc633	0.0073173284
16	0xbe00813d	-0.125493
17	0x3dbb3a90	0.09142029
18	0x3cfa1237	0.030526264
19	0xbd75e899	-0.060036276
20	0xbcb5c787	-0.022189869
21	0xbdef1ee5	-0.116758145
22	0x3cd1624b	0.025559565
23	0xbd9683dd	-0.0734937
24	0x3d3a53bd	0.045490015
25	0x3af005be	0.0018312258
26	0xbdbcfd7c	-0.09228036
27	0x3d36d8c7	0.04464033
28	0xbca0e48e	-0.019640233
29	0x3d8e4ffe	0.06948851
30	0x3b6b5238	0.003590716
31	0xbbb41076	-0.0054951264
32	0xbdb3a140	-0.0877099
33	0xbcf4781f	-0.029842434
34	0x3db217f0	0.08695972
35	0x3b618775	0.0034413014
36	0xbcc37a46	-0.023862015
37	0x3d3b1c5b	0.04568134
38	0x3cab3864	0.020900913
39	0x3dc1fdc2	0.094722286
40	0xbd40aa97	-0.047037687
41	0x3cd46a85	0.025929699
42	0xbd2bf5b4	-0.041982368
43	0xbda8b458	-0.08237523
44	0xbd5e3017	-0.05424508
45	0x3d6d4daa	0.057935394
46	0x3a325a41	0.000680361
47	0xba5eeb12	-0.0008503656
48	0xbd3641c9	-0.04449633
49	0xbbe1613c	-0.0068780463
50	0xbd8f7f7a	-0.07006736
51	0xbc4fef61	-0.01269135
52	0x3c8f1e2e	0.017470445
53	0xbd3c1ee2	-0.04592789
54	0xbd7cdc9e	-0.061733834
55	0x3c9239f8	0.017849907
56	0x3db2e356	0.08734767
57	0x3cadb177	0.021202786
58	0xbc55e003	-0.013053897
59	0x3d02cbb1	0.031932537
60	0xbda2749f	-0.079324
61	0x3cd4f36a	0.025994975
62	0xbc8c2633	-0.017108059
63	0x3c9e322e	0.019311037
64	0xbd566515	-0.052342493
65	0x3d0c43be	0.03424429
66	0x3d2175b8	0.039418906
67	0xbd0e37aa	-0.034721054
68	0xbd18b5ac	-0.03728263
69	0xbda6b2b3	-0.08139553
70	0x3cd62f16	0.0261455
71	0x3d033439	0.032032225
72	0x3dadf0f2	0.08493222
73	0x3da97a80	0.08275318
74	0xbd26c888	-0.040718585
75	0xbd3ba570	-0.04581207
76	0xbd8b6e73	-0.06808176
77	0x3cd17ca3	0.025572127
78	0xba29eb18	-0.000648187
79	0xbd92087d	-0.07130525
80	0x3cabe8d8	0.020985052
81	0xbe26cb44	-0.16288477
82	0x3e36ac71	0.17839219
83	0xbdd8cd0c	-0.105859846
84	0x3dab183b	0.08354231
85	0xbca8ec03	-0.020620352
86	0x3c834b41	0.016027095
87	0x3db144ac	0.08655676
88	0x3db6ac2c	0.08919558
89	0x3db77e9c	0.08959696
90	0x3c28e84d	0.010309291
91	0xbcd01c4b	-0.025404116
92	0xbcfd33c9	-0.030908482
93	0x3d2354da	0.039875843
94	0x3ceb2ebb	0.028708806
95	0x3e055856	0.13021979
96	0xbe683736	-0.22677311
97	0xbca116dd	-0.019664222
98	0x3d933d92	0.07189478
99	0x3db27dc6	0.08715396
100	0x3d8ec7b8	0.06971687
101	0x3c817213	0.015801465
102	0x3c20b3b5	0.0098084705
103	0xbc5a7747	-0.013334102
104	0x3d525b9f	0.051356908
105	0x3d633ead	0.055479694
106	0x3df56ae8	0.119832814
107	0x3dbea075	0.093079485
108	0xbc4ee24a	-0.012627194
109	0xb9772f43	-0.00023573362
110	0xbdab33de	-0.08359502
111	0xbc321a82	-0.010870578
112	0x3df411b6	0.119174406
113	0xbd9442c4	-0.07239297
114	0x3c988812	0.01861957
115	0x3ce2146b	0.027597627
116	0xbb2d4b0e	-0.002644244
117	0xbc007751	-0.007840947
118	0xbdbbad9b	-0.09163972
119	0x3b8d6d3f	0.0043160017
120	0xbc31e288	-0.010857232
121	0xbe375f35	-0.17907412
122	0xbdd2da5b	-0.10295554
123	0x3d7b0ebb	0.061293345
124	0xbdb08ffb	-0.08621212
125	0xbc04c239	-0.008102947
126	0xbca500d1	-0.02014199
127	0x3dd70ee1	0.10500885
128	0x3c9a39fa	0.018826474
129	0xbda3f32c	-0.08005366
130	0x3cdcb61f	0.02694231
131	0xbdb40eae	-0.087918624
132	0xbd90d87b	-0.070725404
133	0xbc78882e	-0.0151691865
134	0x3c7a08eb	0.015260915
135	0x3d58646e	0.052830152
136	0x3cadec91	0.021230968
137	0xbd9c5506	-0.076334044
138	0x3dbb6745	0.091505565
139	0xbcd1dca2	-0.025617901
140	0xbd73c30c	-0.059512183
141	0xbd36b73e	-0.044608347
142	0x3d0ffb70	0.0351519
143	0xbd215f6c	-0.039397642
144	0xbd9d1386	-0.076697394
145	0x3c9b33ff	0.018945692
146	0xbd54a2ad	-0.051912952
147	0x3d7012a5	0.05861153
148	0x3bcdab4f	0.006276525
149	0xbb3b20f7	-0.0028553584
150	0xbc29ec4b	-0.010371278
151	0x3b4f742d	0.003165494
152	0x3d71d724	0.059043065
153	0x3d92085e	0.07130502
154	0x3d7d084d	0.061775494
155	0xbac5fcfb	-0.0015105301
156	0xbdb1dbe0	-0.08684516
157	0xbcbdc4e4	-0.023165174
158	0x3d868f2d	0.06570277
159	0x3d0d2a85	0.034464378
160	0x3cdffafc	0.027341358
161	0x3d9c2e2b	0.07625993
162	0xbc68d5ce	-0.014211131
163	0x3cc03c4c	0.023466252
164	0x3d9d390c	0.076768965
165	0xbc56ec14	-0.013117809
166	0xbda23d51	-0.079218514
167	0x3c86c99f	0.016453562
168	0xbca0eff9	-0.019645678
169	0x3c09404a	0.008377144
170	0x3d6e2e5a	0.058149673
171	0xbce7c48f	-0.028291969
172	0xbda6f239	-0.08151669
173	0xbcdc7ef4	-0.026916005
174	0xbc535f52	-0.012901144
175	0x3d5ccd25	0.05390658
176	0xbd607e11	-0.054807726
177	0xbc28299f	-0.0102638295
178	0xbbbbcfb8	-0.005731549
179	0x3d2252d3	0.03962977
180	0xbd7589ff	-0.059946056
181	0xbd7f1d23	-0.062283646
182	0x3aa46e9f	0.0012545175
183	0xbd0a8ff8	-0.033828706
184	0xbd3d1a02	-0.04616738
185	0x3dacbf07	0.08434873
186	0x3b363649	0.0027803353
187	0x3cbc203e	0.022964593
188	0xbd3f572d	-0.046713997
189	0x3c19295a	0.009348238
190	0xbc294cb0	-0.010333225
191	0xbdcb742c	-0.099342674
192	0xbdc0bf2f	-0.094114654
193	0xbd548559	-0.051884983
194	0x3d124c42	0.035717256
195	0x3db579ca	0.0886112
196	0xbd6da302	-0.058016784
197	0x3d104e5a	0.035230972
198	0x3d2da357	0.0423921
199	0x3bf4f3a6	0.007475334
200	0xbc98481d	-0.018589074
201	0x3da517e1	0.08061195
202	0x3de4558b	0.111491285
203	0x3e1052f5	0.14094146
204	0x3cff7b36	0.031186681
205	0xbc8dfaab	-0.017331442
206	0x3db6eaa9	0.089314766
207	0x3d20f867	0.039299395
208	0xbd433764	-0.047660246
209	0x3d82d2e7	0.06387883
210	0x3e09b9b8	0.13449752
211	0xbc965fbf	-0.018356202
212	0x3dce0245	0.10059027
213	0x3ca22b23	0.01979596
214	0x3ca6ad7f	0.020346401
215	0xbcbd9408	-0.023141876
216	0x3d04b888	0.032402545
217	0x3d973a26	0.07384138
218	0x3c88d1fe	0.016701695
219	0x3bf2e791	0.007412859
220	0x3df1fa04	0.11815265
221	0x3d09e3db	0.033664566
222	0x3e1d43ce	0.15357897
223	0xbe26ad54	-0.16277057
224	0x3d0ec71f	0.034857865
225	0x3c8ffe04	0.017577179
226	0xbc4e6e08	-0.012599476
227	0x3d44a34a	0.048007287
228	0xbc913177	-0.017723782
229	0x3e26bf9f	0.16284035
230	0x3cb58827	0.022159649
231	0xbdc7adac	-0.09749922
232	0x3c158303	0.009125474
233	0x3c20346c	0.009778123
234	0x3d960630	0.07325399
235	0x3d97afbc	0.074065655
236	0x3e010d57	0.12602745
237	0x3dce1d02	0.100641266
238	0x3dcaa6cc	0.09895095
239	0x3d9604db	0.07325145
240	0xbb7e3182	-0.0038786833
241	0x3dff7bbf	0.124747746
242	0xbc3d5d02	-0.011557819
243	0x3c33153d	0.010930357
244	0x3e03b480	0.12861824
245	0x3e155d3a	0.14586344
246	0x3de3aff0	0.11117542
247	0x3da8fbe6	0.08251171
248	0x3d9feade	0.07808469
249	0xbd4c3d8c	-0.049863383
250	0x3db054ad	0.086099006
251	0x3cabc54b	0.0209681
252	0x3d6f6242	0.058443315
253	0xbd7dec8a	-0.06199316
254	0xbd69a958	-0.057046264
255	0x3d6c1437	0.057636466

encoder2.bias f4 [20]
0	0xbd9df869	-0.07713396
1	0x3c8c03fc	0.017091744
2	0xbdd775ad	-0.10520492
3	0xbd10067c	-0.035162434
4	0xbdc5e436	-0.096626684
5	0xbde9f990	-0.114245534
6	0x3db07f84	0.08618072
7	0xbe0de759	-0.13857783
8	0xbd68c474	-0.056827977
9	0x3bee843f	0.0072789486
10	0x3dc71628	0.09721023
11	0xbcd8a037	-0.026443584
12	0xbda4b4b6	-0.080422804
13	0xbd452e89	-0.048140083
14	0xbd0c0922	-0.034188397
15	0xbc8bdc51	-0.017072828
16	0xbb5d7586	-0.0033791973
17	0xbe4b9718	-0.19881856
18	0xbd828f0e	-0.06374942
19	0xbe2692b3	-0.16266899

decoder1.weight f4 [702, 20]
0	0xbc21d081	-0.009876371
1	0x3c8912a5	0.016732523
2	0x3d1ebfb8	0.038757056
3	0x3d070be2	0.032970317
4	0xbdbaeacd	-0.09126816
5	0x3d1ca5c6	0.03824403
6	0x3bb72810	0.0055894926
7	0xbe045a4a	-0.12925068
8	0xbe72d214	-0.23712951
9	0xb984ddb1	-0.00025342175
10	0xbbd7cf32	-0.006585979
11	0xbd25f154	-0.04051335
12	0x3d661566	0.05617275
13	0xbd9f24ed	-0.07770715
14	0x3d0a520d	0.033769656
15	0xbcc1a980	-0.023640394
16	0xbdc45f87	-0.09588533
17	0x3d108330	0.03528136
18	0x3de924d4	0.113839775
19	0xbd4b525f	-0.049639102
20	0x3b7ee396	0.0038892976
21	0xbc9f8f77	-0.019477589
22	0xbc567367	-0.0130890375
23	0xbd477f7d	-0.048705567
24	0x3d908399	0.0705635
25	0x3e5894b7	0.2115048
26	0xbc10090e	-0.008791221
27	0x3ded234f	0.11579
28	0x3e022308	0.12708676
29	0x3b9803dc	0.004639132
30	0x3c764e6e	0.0150333475
31	0x3cd4f41e	0.02599531
32	0x3dfcd4e2	0.12345292
33	0x3d885bcc	0.06658134
34	0xbe724b62	-0.23661569
35	0x3cb47267	0.022027208
36	0xbcd32371	-0.025773736
37	0xbe8eb45c	-0.27871978
38	0xbcc9511b	-0.024574807
39	0xbe3b0c18	-0.18266332
40	0xbc0af959	-0.008482301
41	0x3c28f8cd	0.010313225
42	0x3c008d3f	0.007846176
43	0x3c686f9b	0.014186765
44	0x3d2c1ecc	0.042021558
45	0x3e17ccf4	0.14824277
46	0x3ba8f877	0.0051565724
47	0xbdbea253	-0.09308305
48	0xbcb30512	-0.021853004
49	0x3bf815c3	0.0075709536
50	0xbbed4ef7	-0.0072420794
51	0xbd1bf2bd	-0.03807329
52	0xbc39c9c9	-0.011339613
53	0x3d98f2c9	0.074681826
54	0x3db2dc29	0.087333985
55	0xbe0941ac	-0.13403958
56	0xbe6f72cf	-0.2338364
57	0x3da011d1	0.07815898
58	0xbcf66935	-0.030079463
59	0x3e37c4e5	0.17946203
60	0xbdeff2bc	-0.1171622
61	0x3da8db16	0.08244912
62	0xbd4faf8c	-0.050704524
63	0x3cca7615	0.024714509
64	0x3e14f387	0.14546023
65	0x3e2db204	0.16962439
66	0x3e408c5d	0.18803544
67	0x3dbc6f1c	0.0920088
68	0xbcfafdba	-0.030638564
69	0x3e7208d1	0.23636176
70	0x3d5a4ed6	0.05329784
71	0x3e266634	0.16249925
72	0xbba25325	-0.0049537593
73	0x3d446130	0.047944248
74	0xbd3bd3eb	-0.045856398
75	0x3ca6cfaf	0.020362703
76	0xbe7d3948	-0.24728882
77	0xbcd5b147	-0.026085509
78	0x3b319718	0.0027098116
79	0x3e62ae07	0.22136699
80	0xbdced7c8	-0.10099751
81	0x3ca3cfdb	0.019996574
82	0x3b9ede84	0.0048483033
83	0x3d260a9b	0.040537458
84	0xbdafb7d5	-0.08579985
85	0x3d4182d3	0.047243904
86	0x3d25138e	0.040301852
87	0x3d801f4e	0.06255971
88	0xbd178de4	-0.03700055
89	0x3e588468	0.21144259
90	0x3c375166	0.0111888405
91	0xbd891085	-0.06692604
92	0xbe32e3de	-0.17469737
93	0x3e5d52ba	0.21613589
94	0xbe2dbd91	-0.16966845
95	0x3e410b64	0.18852001
96	0x3d3195e9	0.043355856
97	0xbd1fbc84	-0.038998142
98	0x3dfd1703	0.12357905
99	0x3e8a7cb0	0.27048254
100	0x3c16fbe6	0.009215331
101	0x3c17c4d8	0.00926324
102	0x3cca36fe	0.024684425
103	0xbbc6a430	-0.006062053
104	0x3de3d29a	0.111241534
105	0x3dd36e2d	0.10323749
106	0xbb94adad	-0.0045373053
107	0x3e84da24	0.25947678
108	0xbdc4a2e8	-0.096013844
109	0xbd2bf817	-0.041984644
110	0xbc0c1335	-0.008549501
111	0xbd32fcff	-0.043698307
112	0x3dc8b32f	0.097998016
113	0x3ca13eba	0.01968323
114	0x3ceeecd0	0.029165655
115	0xbe83cd63	-0.25742635
116	0x3e32e229	0.17469086
117	0xbe112a33	-0.14176254
118	0x3e032e62	0.12810662
119	0x3d4c1084	0.049820438
120	0x3b998268	0.004684735
121	0xbb7a5abf	-0.0038201062
122	0x3ccdfcab	0.025144896
123	0x3be90ef5	0.0071123787
124	0xbe5aa0bc	-0.21350378
125	0x3db42980	0.08796978
126	0xbbaa3b06	-0.0051950244
127	0x3e6167db	0.22012274
128	0x3e7dac6a	0.24772802
129	0xbc5cb3b5	-0.01347058
130	0x3adf3732	0.0017029999
131	0x3ddd5eb0	0.10809076
132	0x3dcdedda	0.10055132
133	0x3ceb7721	0.028743329
134	0xbd245180	-0.040116787
135	0xbe22ce9b	-0.15899126
136	0x3e3e7c1c	0.18602031
137	0x3d0dc3d0	0.03461057
138	0xbdbe8090	-0.09301865
139	0xbd895079	-0.06704802
140	0xbd042b32	-0.032267757
141	0x3dd0ac87	0.10189157
142	0xbd812dad	-0.0630754
143	0x3ca6987a	0.020336378
144	0xbb369e82	-0.0027865474
145	0x3deb8b6f	0.11501204
146	0xbd3278ad	-0.043572117
147	0x3e272abc	0.16324896
148	0xbd0d5b2b	-0.034510773
149	0x3e91906d	0.284305
150	0x3de2b7c4	0.11070207
151	0x3e7ef021	0.2489629
152	0xbcca0a61	-0.024663152
153	0xbdd65102	-0.1046467
154	0xbb1caa89	-0.0023905358
155	0x3d096dfa	0.033552147
156	0xbcceac34	-0.025228597
157	0xbd85d00b	-0.06533822
158	0xbd64fcb6	-0.055905066
159	0xbd949b6a	-0.072562054
160	0xbd98172a	-0.07426293
161	0x3e744312	0.2385371
162	0xbe5dfb81	-0.21677972
163	0x3dddf551	0.10837806
164	0x3d988d85	0.07448868
165	0xbdc47b7f	-0.095938675
166	0xbdb1f2ff	-0.08688926
167	0x3e06f79c	0.13180393
168	0x3d20a591	0.039220396
169	0x3f08dace	0.5345887
170	0x3e4dca53	0.20096712
171	0x3c3322a5	0.010933553
172	0x3d02c86f	0.03192943
173	0x3db97682	0.09055807
174	0x3e589ebc	0.21154302
175	0xbe866af8	-0.26253486
176	0xbe61258f	-0.21986984
177	0x3b8c8f35	0.0042895325
178	0x3d9aca44	0.0755811
179	0xbe2557ac	-0.16146725
180	0xbce1acba	-0.027548183
181	0x3ddb5cca	0.107110575
182	0xbd975c74	-0.07390681
183	0x3d87ba26	0.06627302
184	0x3d1dc19a	0.03851471
185	0xbd84448a	-0.06458385
186	0xbd44311c	-0.047898397
187	0x3dba2ce6	0.09090595
188	0x3d31989a	0.043358423
189	0x3e8ae5f2	0.2712856
190	0x3dd781db	0.10522815
191	0xbe88c87e	-0.26715463
192	0xbe2c13ca	-0.16804424
193	0x3cba6dec	0.022757493
194	0x3dd702a3	0.1049855
195	0x3cf88ce4	0.03034062
196	0xbc0c3768	-0.008558132
197	0x3d1b6b14	0.037943915
198	0x3dd28f0d	0.10281191
199	0x3e334196	0.17505488
200	0xbdf9d5a3	-0.12198951
201	0x3e0c6ca0	0.13713312
202	0xbd339c3a	-0.04385016
203	0x3e0eef12	0.13958386
204	0xbe275221	-0.16339923
205	0x3dd2d813	0.10295119
206	0x3e4b429f	0.19849633
207	0xbe41751e	-0.18892333
208	0x3dddb6b5	0.10825864
209	0x3e391b6e	0.1807687
210	0x3ce5cca1	0.028051676
211	0x3e024245	0.12720592
212	0x3e77445c	0.24147171
213	0x3de6980c	0.112594694
214	0x3e859b79	0.2609518
215	0xbd4d1de9	-0.050077353
216	0xbe0df400	-0.1386261
217	0x3d8561b2	0.065127745
218	0x3d061a92	0.032740183
219	0x3d035378	0.032062024
220	0xbdf30cce	-0.11867677
221	0x3c972a03	0.01845265
222	0xbc9939a8	-0.01870425
223	0x3cdd4615	0.027010957
224	0x3c527fe1	0.0128478715
225	0x3d570f70	0.052504957
226	0x3d4d370b	0.05010132
227	0xbc51a341	-0.01279527
228	0xbc83318c	-0.016014837
229	0x3e84c0dd	0.25928393
230	0x3c0bf983	0.008543375
231	0x3d41c0da	0.04730306
232	0xbe8051a3	-0.25062284
233	0x3dfcf41d	0.123512484
234	0xbdb7f12e	-0.08981548
235	0xbc051adb	-0.008124079
236	0x3ea891b7	0.32923672
237	0x3d96df5c	0.07366821
238	0xbe3eb887	-0.18625079
239	0x3e8e5667	0.27800295
240	0xbb3d52e5	-0.002888852
241	0x3a70274e	0.00091611303
242	0x3cbec04a	0.02328505
243	0x3c411cdc	0.011786666
244	0xbe2a18eb	-0.16611068
245	0x3dfccbe8	0.123435795
246	0xbbbca7a6	-0.00575729
247	0x3db7db9f	0.08977436
248	0x3e5b1754	0.21395618
249	0xbc22b8f8	-0.009931795
250	0x3b1e20a1	0.0024128335
251	0xbd905944	-0.07048276
252	0x3e3ecad2	0.18632057
253	0x3da5104d	0.0805975
254	0xbdfc8996	-0.1233093
255	0xbe6f5fd4	-0.233764

decoder1.bias f4 [702]
0	0x3e8317e0	0.25604153
1	0xbd85bdfa	-0.06530376
2	0x3e02d40b	0.127762
3	0xbdb419d9	-0.087939925
4	0xbe074431	-0.13209607
5	0xbe82ea45	-0.25569358
6	0xbe23dbb1	-0.16001774
7	0xbdc8499b	-0.09779664
8	0xbd7c2386	-0.061557315
9	0xbdd1c9ff	-0.10243606
10	0xbc7db9c6	-0.015486186
11	0xbdfcac63	-0.12337568
12	0x3dda5930	0.106615424
13	0xbdc85f96	-0.097838566
14	0xbe8757d9	-0.2643421
15	0x3dc5b879	0.09654326
16	0xbd86a95e	-0.06575273
17	0xbe9013dd	-0.28140154
18	0xbe02f326	-0.12788066
19	0xbdf1c2bb	-0.1180472
20	0xbcd57b63	-0.026059812
21	0xbe820772	-0.25396305
22	0xbe8f974e	-0.28045124
23	0xbe2189f8	-0.15775287
24	0x3d046866	0.032326125
25	0x3e1dd7cf	0.15414356
26	0xbd0cd2de	-0.034380786
27	0x3d0bcd3a	0.034131266
28	0xbe3db3db	-0.1852564
29	0xbe6b45c2	-0.22975829
30	0xbd51fb11	-0.051264826
31	0xbd624b59	-0.05524764
32	0xbd85c246	-0.06531195
33	0xbe6f0402	-0.23341373
34	0xbe6b923d	-0.23005004
35	0x3e008f55	0.12554677
36	0xbd51fe6d	-0.05126803
37	0xbd1fcd05	-0.03901388
38	0xbe82463d	-0.25444213
39	0xbae8e908	-0.0017769644
40	0xb90d6ee6	-0.00013488121
41	0xbe809346	-0.2511236
42	0xbd9260fb	-0.07147404
43	0xbe7eb250	-0.24872708
44	0xbe3cf8c3	-0.1845427
45	0x3dc70b53	0.09718957
46	0xbe913f1b	-0.28368458
47	0xbe933649	-0.28752354
48	0x3d44341b	0.047901254
49	0xbcc802ce	-0.0244154
50	0x3e0823b0	0.13294864
51	0xbe4fe130	-0.20300746
52	0xbd7a662f	-0.061132606
53	0xbe8bfafa	-0.27339917
54	0xbe64d22e	-0.22345802
55	0xbe4b9a74	-0.19883138
56	0x3e0ee2f3	0.13953762
57	0xbe2574ff	-0.16157912
58	0x3c64296c	0.013925891
59	0x3da3ef01	0.08004571
60	0x3d7b11ce	0.061296277
61	0x3ba2ad26	0.0049644886
62	0x3dc4cbf7	0.09609216
63	0xbe034b99	-0.12821807
64	0xbe3d8f3e	-0.18511674
65	0xbdd06db4	-0.10177174
66	0xbe389068	-0.18023837
67	0xbe88d396	-0.26723927
68	0xbd8126e4	-0.06306246
69	0x3d430f49	0.047622
70	0x3dafc9dd	0.08583424
71	0xbe8c38af	-0.27386996
72	0xbe4756bd	-0.19466682
73	0xbe70922b	-0.23493259
74	0xbd1fe6af	-0.039038356
75	0xbe35fdc5	-0.17772587
76	0x3ce79ce5	0.028273055
77	0x3d502159	0.050813053
78	0xbe7bb9e6	-0.24582633
79	0xbd304708	-0.04303649
80	0xbe9057df	-0.2819204
81	0xbec00326	-0.37502402
82	0x3d3c803f	0.046020743
83	0xbdf9ea24	-0.12202862
84	0x3e2881c1	0.16455747
85	0x3e8b3283	0.27186975
86	0xbd767410	-0.06016928
87	0x3d930825	0.07179288
88	0xbd53094d	-0.05152254
89	0xbc9cb20c	-0.019127868
90	0xbe909136	-0.28235787
91	0xbe32c2c6	-0.17457113
92	0x3cdf1bef	0.027235
93	0xbe18f320	-0.14936495
94	0x3d8b65b3	0.06806507
95	0x3cbd1605	0.023081789
96	0xbd7059ca	-0.05867938
97	0x3c387dcd	0.011260462
98	0x3b84d1ea	0.004053344
99	0xbb37f23b	-0.0028067965
100	0xbe2ad75a	-0.16683713
101	0xbe81fdee	-0.25389045
102	0xbcd39d70	-0.025831908
103	0x3db1b1db	0.08676501
104	0x3ca5be84	0.020232446
105	0xbd23b334	-0.039965823
106	0xbd471fca	-0.0486143
107	0xbe8164cd	-0.25272217
108	0x3def0d71	0.116724856
109	0x3db7ed77	0.0898084
110	0xbe6926f0	-0.2276876
111	0xbe85a563	-0.26102743
112	0x3d7e72cb	0.062121194
113	0xbe6d353d	-0.2316484
114	0xbdf876ce	-0.12132035
115	0xbe819dbf	-0.25315663
116	0xbe654f42	-0.22393516
117	0xbe63d773	-0.22250156
118	0xbd0f5cb7	-0.03500053
119	0xbe449be4	-0.19200093
120	0x3decb872	0.11558618
121	0x3d1bcd64	0.038037673
122	0xbe161d75	-0.14659674
123	0xbe7bd67b	-0.24593537
124	0xbe21a07a	-0.15783873
125	0xbc3ef877	-0.011655918
126	0xbdaafb13	-0.0834867
127	0x3c213420	0.009839088
128	0x3de24bd5	0.1104962
129	0x3e1be196	0.15222773
130	0x3ce23eee	0.027617898
131	0x3cd17eb9	0.025573121
132	0x3daf6085	0.085633315
133	0xbe6eccc7	-0.23320304
134	0xbda7d9df	-0.081958525
135	0xbd02407e	-0.031799786
136	0xbe867d89	-0.2626765
137	0xbd458254	-0.048219994
138	0xbc6c31ba	-0.014416153
139	0xbe26e67a	-0.16298857
140	0x3d359039	0.044326995
141	0xbc95bd91	-0.018278869
142	0xbe04847e	-0.12941167
143	0x3c717282	0.014736773
144	0x3d4545a4	0.048162118
145	0xbe8de7f7	-0.27716038
146	0xbe735f06	-0.23766717
147	0xbdfd5fb4	-0.123717695
148	0xbdef1c08	-0.116752684
149	0xbe2cd85d	-0.16879411
150	0xbd8d193a	-0.06889577
151	0x3d837a91	0.06419862
152	0x3b92146d	0.0044580013
153	0xbe4ad019	-0.19805945
154	0xbe829a81	-0.25508502
155	0xbde485cf	-0.111583345
156	0xbb848774	-0.0040444676
157	0xbe882ba2	-0.2659579
158	0xbd08f041	-0.03343225
159	0xbb8af785	-0.0042409324
160	0xbbd2565c	-0.0064189862
161	0xbdd98db8	-0.10622734
162	0xbc62690f	-0.013818993
163	0xbe76c9a6	-0.2410036
164	0xbe9bb95b	-0.30414852
165	0xbe3dc38b	-0.18531625
166	0xbe33f174	-0.17572576
167	0xbe8ee85b	-0.27911648
168	0x3b5f8c59	0.0034110753
169	0x3d97c6e9	0.07410986
170	0x3d06ce4c	0.032911584
171	0xbe7fdd19	-0.24986686
172	0x3da75389	0.0817023
173	0x3e8b0f2d	0.27160016
174	0x3e0fb87c	0.14035219
175	0x3d83756b	0.0641888
176	0xbe50f16d	-0.20404597
177	0xbe3ade54	-0.18248874
178	0xbe1f5c07	-0.1556245
179	0xbe824369	-0.25442055
180	0x3cf384a2	0.02972633
181	0xbd730f4c	-0.05934076
182	0x3dc9fdc5	0.09862856
183	0xbcbda0ba	-0.02314793
184	0xbe9af5b4	-0.30265582
185	0xbdf92920	-0.12166047
186	0x3d933f2f	0.07189786
187	0x3d927c29	0.07152588
188	0x3d0908e6	0.03345575
189	0xbbf83fe2	-0.007575975
190	0xbe1e4417	-0.15455662
191	0xbe2260fa	-0.15857306
192	0x3dc14eaf	0.09438836
193	0x3c01b19d	0.007915881
194	0x3d25f5af	0.040517505
195	0xbd8433f8	-0.06455225
196	0xbe7fa921	-0.24966861
197	0xbe17e9c9	-0.14835276
198	0xbc9a676b	-0.018848142
199	0x3d4618bc	0.048363432
200	0xbe338791	-0.17532183
201	0xbe1408c9	-0.14456476
202	0xbe75f4ee	-0.24019215
203	0xbe72794c	-0.23679084
204	0x3dbc66b2	0.09199275
205	0xbe804ebb	-0.25060067
206	0x3df95bce	0.121757135
207	0xbe69d542	-0.22835258
208	0x3d875ffa	0.06610103
209	0xbe1937c7	-0.14962684
210	0xbe886112	-0.2663656
211	0xbe68fa76	-0.22751793
212	0xbe076d1c	-0.13225216
213	0xbdbb2f77	-0.091399126
214	0xbd72bd32	-0.059262462
215	0x3d9f3246	0.07773261
216	0xbe90f7df	-0.2831411
217	0xbe4bcc04	-0.19902045
218	0x3d17205d	0.0368961
219	0xbd852dff	-0.06502914
220	0xbdb8a550	-0.09015906
221	0xbdf90cb6	-0.121606275
222	0xbeb52b6b	-0.35384688
223	0x3d45df94	0.048308924
224	0x3d2a1f38	0.04153368
225	0xbe5e01c5	-0.21680363
226	0xbd3b1e57	-0.04568323
227	0x3e056030	0.13024974
228	0xbe8b73bd	-0.2723674
229	0xbe5dfefc	-0.216793
230	0xbe469d48	-0.19395936
231	0x3d8c6e0e	0.06856929
232	0xbe16fce7	-0.14744912
233	0xbe174236	-0.14771351
234	0xbe869a18	-0.2628944
235	0x3d9d77a8	0.07688838
236	0xbe979bff	-0.29611203
237	0xbe683fe0	-0.22680616
238	0xbe36d3dd	-0.17854257
239	0xbe577975	-0.21042426
240	0xbe7cb591	-0.24678637
241	0xbe91b551	-0.28458646
242	0xbde598c1	-0.11210776
243	0xbea77ea6	-0.32713813
244	0xbd83e094	-0.06439319
245	0xbe1220c2	-0.14270309
246	0xbd6c83ca	-0.05774287
247	0x3d11c444	0.035587564
248	0xbe5bc0ee	-0.21460316
249	0xbe381273	-0.17975788
250	0xbe2ad163	-0.16681437
251	0xbe38e7f7	-0.18057238
252	0x3bf2e258	0.007412236
253	0xbe5894aa	-0.21150461
254	0xbeae4ec8	-0.3404448
255	0xbe695d31	-0.22789456
