models/rw_buf_encoder.pt (torch, 624859 bytes, 10 tensors)

encoder1.weight f4 [100, 702]
-0.02460802 0.100232735 0.3062324 0.08451989 -0.08169185 0.0047876076 -0.030431448 0.05734305
0.067340255 -0.044945266 0.0671624 -0.035378393 -0.0078066248 -0.033595596 -0.033427965 0.014596663
0.0041765585 -0.03239969 -0.055351883 0.0556573 0.008018426 0.0054562083 -0.054159023 0.013111693
-0.06453179 0.009754254 -0.043346915 0.024071116 -0.011203156 -0.009740798 -0.01581937 0.0087806545
-0.040402062 0.0055764727 -0.01561588 0.016557854 -0.0348433 0.02052183 -0.025384381 -0.010637411
0.006969727 0.0028656109 0.074779056 -0.21887672 0.03473193 0.31028178 -0.08281486 -0.027964296
-0.011609174 0.49899083 0.2306661 -0.07314544 0.19662842 -0.012068842 0.027941061 0.030023983
0.09557487 0.09548248 0.08911631 0.060882617 -0.09290078 0.031983003 -0.017646333 -0.025452012
0.01253137 0.033856593 -0.036925524 -0.06371648 0.0083916625 -0.03404365 0.002300784 0.003210795
0.04361602 -0.0064477124 0.009513349 -0.02569453 0.008896271 -0.0059457533 0.011754558 0.0036036745
-0.028865386 -0.015394858 0.012470133 0.0102754915 -0.2858423 -0.20267522 0.052453715 -0.03900691
0.059864093 0.15597829 -0.041781336 -0.00060642866 0.030074872 -0.08076335 -0.25216419 0.04013188
0.04130589 -0.026438562 0.023074508 -0.03074002 -0.037428096 -0.0016325478 -0.077654794 -0.15768704
-0.09576056 -0.004523055 -0.010408234 0.00432154 0.027964333 0.01368289 0.01078369 -0.029363954
0.030407084 0.011297062 0.00039398874 0.013729568 0.030135032 0.014963544 -0.023742786 0.018557953
0.0084851235 0.0077365553 -0.020284 0.0067147817 0.033560235 -0.0012771379 0.035070676 -0.018434662
0.4024952 -0.1626244 0.19266845 -0.6132197 -0.023532111 0.03647482 -0.07979065 0.03031568
-0.0038611398 0.086942315 0.14528403 -0.004757818 -0.055525094 -0.05307 0.019907556 0.024600396
-0.12938271 -0.12597047 -0.16144092 -0.20471826 -0.09504388 0.005738522 0.018288435 0.0342149
0.0402948 0.007988959 0.053581838 -0.058063343 -0.032435123 0.013957262 0.0063842265 -0.03222359
0.01834569 -0.012595066 -0.0031711254 -0.027884541 -0.024523586 0.0077412315 0.009652127 -0.033002526
0.02064605 0.0022766609 -0.037498258 0.026277523 -0.043757886 -0.20568998 -0.024362683 0.13285433
0.17578991 0.21173926 -0.12473481 7.1070775e-05 0.02860394 0.22374225 0.037943095 0.5439472
0.1963159 -0.027522393 0.0068067154 -0.018758528 0.05737495 0.07370516 0.08357954 0.042918887
-0.114796594 -0.0009917297 -0.005660822 -0.00431719 -0.0049285106 -0.029907117 -0.045370996 0.00013161186
0.01585609 -0.031842824 -0.02107751 -0.032115806 -0.006327244 -0.04228216 -0.056540895 0.019787753
-0.030306404 -0.0063421996 0.015078135 -0.012161184 0.028816128 0.03156621 -0.018824989 0.028655795
-0.09775811 0.21483801 -0.08063597 0.26600465 -0.20535317 0.2977706 -0.056782715 0.033025842
0.006508145 -0.06078352 -0.22013384 0.20790586 0.28280312 -0.007579729 -0.017070837 0.017841797
0.08415957 0.12182259 0.07840376 -0.02753629 -0.112544015 -0.033500798 7.6126154e-05 0.004397342
0.051564574 0.032364182 0.036473516 -0.0030361244 -0.009304282 -0.02558724 -0.008291523 -0.023016281
0.008738107 -0.008579933 -0.035357825 0.00232388 -0.0053666686 -0.025860434 -0.009126457 -0.0012870027
00000000: c296 c9bc d246 cd3d 7eca 9c3e c418 ad3d
00000010: 0f4e a7bd 5de1 9c3b 5f4b f9bc 8ce0 6a3d
00000020: b0e9 893d 8718 38bd 718c 893d efe8 10bd
00000030: b7ce ffbb 899b 09bd c3eb 08bd d826 6f3c
00000040: 83db 883b 8ab5 04bd a8b8 62bd e9f8 633d
00000050: b75f 033c fec9 b23b dad5 5dbd 6dd2 563c
00000060: 3e29 84bd 4ed0 1f3c 898c 31bd ca30 c53c
00000070: 718d 37bc de97 1fbc a097 81bc bcdc 0f3c
00000080: a27c 25bd d8ba b63b bfd9 7fbc 56a4 873c
00000090: d9b7 0ebd 661d a83c e8f2 cfbc 8948 2ebc
000000a0: 4f62 e43b f9cc 3b3b c325 993d 3821 60be
000000b0: 1143 0e3d 41dd 9e3e d69a a9bd 6115 e5bc
000000c0: 6834 3ebc ba7b ff3e bc33 6c3e 47cd 95bd
000000d0: f658 493e 64bc 45bc a7e4 e43c dbf4 f53c
000000e0: c2bc c33d 528c c33d 9d82 b63d 0d60 793d
000000f0: c442 bebd 9c00 033d 0b8f 90bc bd80 d0bc
00000100: 6050 4d3c 36ad 0a3d 383f 17bd c97d 82bd
00000110: 2f7d 093c 5b71 0bbd c0c8 163b 346c 523b
00000120: b6a6 323d 5547 d3bb e1dd 1b3c 567d d2bc
00000130: aac1 113c 98d4 c2bb 3196 403c a02b 6c3b
00000140: 1a77 ecbc b73a 7cbc 874f 4c3c 895a 283c
00000150: ec59 92be 188a 4fbe b5d9 563d b6c5 1fbd
00000160: 0d34 753d c6b8 1f3e e822 2bbd bdf8 1eba
00000170: 945f f63c 4167 a5bd aa1b 81be 5461 243d
00000180: 5d30 293d af95 d8bc c006 bd3c 7fd2 fbbc
00000190: 344e 19bd 37fb d5ba 7a09 9fbd b678 21be
000001a0: 1d1e c4bd 2336 94bb 4c87 2abc b49b 8d3b
000001b0: 7515 e53c 332e 603c 13ae 303c ad8c f0bc
000001c0: 4718 f93c 5017 393c 4690 ce39 fbf1 603c
000001d0: bedd f63c a729 753c 3b80 c2bc d906 983c
000001e0: 3005 0b3c ee82 fd3b a22a a6bc ac07 dc3b
000001f0: 7576 093d a365 a7ba 45a6 0f3d 4a04 97bc
00000200: da13 ce3e 0387 26be e14a 453e f7fb 1cbf
00000210: 6ac6 c0bc 9f66 153d 4869 a3bd 9758 f83c
00000220: 2d0b 7dbb d00e b23d 56c5 143e 78e7 9bbb
00000230: 486e 63bd ee5f 59bd 2c15 a33c c586 c93c
00000240: e77c 04be 67fe 00be c550 25be aaa1 51be
00000250: 5ea6 c2bd 360a bc3b a1d1 953c ec24 0c3d
00000260: 290c 253d 1fe4 023c a178 5b3d d4d3 6dbd
00000270: b1da 04bd 00ad 643c c632 d13b e2fc 03bd
00000280: b349 963c 895b 4ebc a8d2 4fbb 1f6e e4bc
00000290: b0e5 c8bc 28aa fd3b f423 1e3c a82d 07bd
000002a0: e821 a93c 0834 153b c697 19bd f643 d73c
000002b0: 783b 33bd 65a0 52be 4094 c7bc f70a 083e
000002c0: 4502 343e 2dd2 583e f774 ffbd d50b 9538
000002d0: cf52 ea3c b01c 653e 386a 1b3d 2040 0b3f
000002e0: 0907 493e a476 e1bc de0a df3b 7cab 99bc
000002f0: ff01 6b3d bbf2 963d c02b ab3d b7cb 2f3d
00000300: 7a1a ebbd edfc 81ba 6b7e b9bb 3777 8dbb
00000310: 587f a1bb c5ff f4bc f0d6 39bd 4a01 0a39
00000320: a1e4 813c 9f6d 02bd beaa acbc dd8b 03bd
00000330: c554 cfbb 0f30 2dbd 6d97 67bd ed19 a23c
00000340: 2345 f8bc 3ad2 cfbb 480a 773c b43f 47bc
00000350: cd0f ec3c 924b 013d dd36 9abc 8fbf ea3c
00000360: 6735 c8bd 7ffe 5b3e 7924 a5bd c331 883e
00000370: 1a48 52be 6375 983e fe94 68bd 1b46 073d
00000380: 4742 d53b 24f8 78bd c46a 61be 46e5 543e
00000390: 92cb 903e 605f f8bb 24d8 8bbc f628 923c
000003a0: da5b ac3d 1f7e f93d 2792 a03d c993 e1bc
000003b0: 7a7d e6bd 2238 09bd eba5 9f38 9417 903b
000003c0: 6035 533d 4e90 043d 4165 153d b7f9 46bb
000003d0: fd70 18bc 559c d1bc 2bd9 07bc a48c bcbc
000003e0: 472a 0f3c d992 0cbc 5ed3 10bd 3d4c 183b
000003f0: e1da afbb 43d9 d3bc 2387 15bc a5b0 a8ba

encoder1.bias f4 [100]
-0.0072193593 0.023524486 -0.0411031 0.030016052 0.023714937 0.023434108 -0.032109898 0.026600953
0.025666254 0.02811676 0.006000974 0.0145099815 -0.02445978 0.041340206 0.048641626 0.024022693
-0.027247058 -0.035172515 0.041089807 0.016985022 0.019104354 -0.026627388 0.0153086325 0.03235127
-0.023054585 0.0015296299 0.003452323 0.030113406 -0.018579183 0.028823243 -0.0012903109 -0.016511919
0.016982717 0.03255411 -0.0017326442 -0.031382438 -0.04070166 -0.009136767 0.00064113125 -0.011610867
-0.030834142 0.010298421 0.02020285 -0.017727494 -0.020410188 -0.010898753 0.034640174 -0.04650791
-0.024313094 -0.04037774 -0.013466568 -0.0007732347 -0.06924156 -0.04137716 0.0014699736 0.03763855
-0.026093379 -0.009254586 0.03327457 0.037195906 -0.010366511 -0.015212726 -0.011417987 -0.010496111
-0.006122207 -0.02479824 0.021655772 -0.023843901 0.009354392 -0.005292118 0.0130137345 -0.031571623
-0.053059936 -0.039807886 0.0351237 0.019674048 -0.039158072 0.008675755 -0.063487485 0.03374258
-0.032687705 0.00019834416 0.036500324 0.0057923435 -0.012329646 -0.01231646 0.024958692 -0.005865485
0.024604827 0.0007558097 0.010803999 0.03817361 -0.015076691 -0.03727103 0.034079332 -0.027522448
-0.032665588 0.004354936 0.031230617 0.048343126
00000000: 6090 ecbb 6cb6 c03c b95b 28bd 39e4 f53c
00000010: d445 c23c e3f8 bf3c ab85 03bd 3eea d93c
00000020: 0942 d23c 1f55 e63c d2a3 c43b 46bb 6d3c
00000030: e05f c8bc 5954 293d 713c 473d 3dcb c43c
00000040: 3935 dfbc 0e11 10bd c94d 283d 2c24 8b3c
00000050: bc80 9c3c ae21 dabc 0fd1 7a3c c482 043d
00000060: f8dc bcbc dd7d c83a 5e40 623b 64b0 f63c
00000070: 5f33 98bc b91e ec3c a61f a9ba 0144 87bc
00000080: 571f 8b3c 7557 053d e419 e3ba df8a 00bd
00000090: c9b6 26bd 61b2 15bc 9711 283a 823b 3ebc
000000a0: e297 fcbc b5ba 283c 7380 a53c 4039 91bc
000000b0: 4433 a7bc af90 32bc dbe2 0d3d 147f 3ebd
000000c0: 412c c7bc 2163 25bd e1a2 5cbc e7b2 4aba
000000d0: 85ce 8dbd 197b 29bd 21ac c03a e12a 1a3d
000000e0: c8c1 d5bc 8ca0 17bc ea4a 083d bc5a 183d
000000f0: 4cd8 29bc cc3e 79bc 8212 3bbc e1f7 2bbc
00000100: cb9c c8bb ae25 cbbc 7267 b13c 4954 c3bc
00000110: 2a43 193c 8169 adbb 8f37 553c 3f51 01bd
00000120: 6055 59bd 980d 23bd dedd 0f3d 782b a13c
00000130: 3764 20bd c124 0e3c ba05 82bd a935 0a3d
00000140: 8be3 05bd 9bfa 4f39 5d81 153d b3cd bd3b
00000150: 4902 4abc faca 49bc 2c76 cc3c 4133 c0bb
00000160: 1090 c93c 8821 463a 4203 313c ee5b 1c3d
00000170: 3a04 77bc 82a9 18bd c596 0b3d c276 e1bc
00000180: 5acc 05bd dab3 8e3b 5ad7 ff3c 7103 463d

encoder2.weight f4 [100, 100]
-0.058124464 0.013798648 0.02086679 -0.057855655 0.07787221 -0.06852626 0.054777198 0.00660252
0.041529037 -0.0656127 -0.09213944 0.03421411 -0.12603627 0.077298455 -0.043556068 0.079747856
0.14522713 0.07123267 0.21531399 -0.10769084 -0.058416005 -0.027262533 0.034727987 -0.10087571
-0.04327156 -0.042166322 0.07269362 0.02266667 -0.1141079 0.12441322 -0.006353934 0.059108514
0.06284509 -0.05502937 0.08179437 0.11002766 -0.07886698 0.0065364493 -0.05490897 -0.11906083
-0.08037839 0.018702291 -0.0634281 -0.11478869 -0.041495048 0.12248514 0.14222103 -0.13590515
-0.05487852 -0.0070925667 -0.06807235 0.11606953 0.041885402 -0.03722841 0.0948618 -0.012258864
-0.036092732 -0.015630495 -0.014586967 -0.16996679 0.0039388207 0.1299244 -0.06920829 0.09532027
0.10143611 0.011586367 -0.06453401 -0.032993272 -0.06273852 0.08012366 -0.08152566 -0.054401178
-0.1003856 0.005242297 0.024466412 0.03057418 -0.038541384 -0.035546057 -0.09447651 -0.01645729
0.018329263 0.045649316 -0.09236034 -0.015004688 0.001989806 -0.031501245 -0.050105255 0.0058372696
0.0035489807 0.1029112 -0.054900263 0.12933877 -0.16847359 -0.09873393 0.029920436 0.032326054
0.05918461 -0.06841699 0.04118196 0.06963951 0.10408544 -0.021595925 0.09573788 0.075270206
-0.0610337 0.14857347 0.19866769 -0.08229827 -0.0042678434 -0.0013693512 -0.14857881 -0.07170775
-0.3729913 -0.2657401 0.03916397 -0.03454636 0.11004588 -0.10250907 -0.045490358 0.04813755
0.15803394 0.03449075 -0.072224066 -0.102290295 0.11809778 -0.033464625 -0.03970145 0.017200602
0.12663522 0.034627493 0.057692733 -0.09566872 0.036166135 0.05787988 0.00940099 -0.055636425
-0.06229507 -0.038497802 0.024465209 -0.0266017 -0.018307194 0.01666271 -0.0849793 -0.027043235
0.045963358 0.0019224196 -0.046769273 0.07565347 0.18581657 0.095326915 0.10494918 0.044151682
-0.030219419 0.03305891 0.05873407 0.12448682 -0.027757632 0.00048038 -0.02429662 -0.028251661
0.046463624 -0.1110906 -0.025569327 -0.0664054 -0.0701324 0.076340005 -0.09509217 -0.06413759
-0.07579975 -0.06294201 -0.12967 -0.114326626 0.063075215 -0.063626595 0.053541876 -0.09868163
0.05137736 -0.0034187955 -0.077253446 0.06426946 0.041025393 -0.0080455495 0.003574506 -0.13242482
0.08481173 0.078226104 -0.106225014 -0.016584178 0.064940244 -0.043160897 0.18992175 -0.0037020808
-0.19004807 0.13361956 0.07258023 0.04917771 -0.017002344 -0.18816546 0.03843345 -0.058784634
-0.078854464 -0.08985415 -0.009790333 -0.014370069 0.04084685 -0.16961844 0.053393856 -0.035510406
0.06888547 0.07574959 0.10719754 0.021000274 0.03039701 0.087421976 -0.10302279 0.07764498
-0.03998153 0.005060837 -0.20235576 0.01706976 -0.08740383 -0.016875701 -0.020638512 -0.12079685
-0.008046802 -0.13190293 0.024131997 0.07624316 0.20363702 0.054452933 0.044074085 0.08264619
-0.08758148 0.0250092 -0.07294866 0.019515853 -0.03589782 0.16786927 -0.012638649 0.10160845
-0.0033934496 0.03657393 0.08139404 0.05488411 0.024713598 0.087087005 -0.16042794 0.09528151
-0.0050523966 -0.004723408 -0.07054856 0.046721973 -0.08686171 -0.0107066985 -0.051946573 0.011622733
00000000: eb13 6ebd b913 623c d5f0 aa3c 0dfa 6cbd
00000010: 777b 9f3d 7f57 8cbd 0e5e 603d f459 d83b
00000020: 5a1a 2a3d f45f 86bd 9ab3 bcbd 1824 0c3d
00000030: a70f 01be a74e 9e3d d967 32bd d852 a33d
00000040: 6cb6 143e 6fe2 913d 457b 5c3e 048d dcbd
00000050: 9f45 6fbd ad55 dfbc ef3e 0e3d ed97 cebd
00000060: 853d 31bd 98b6 2cbd 65e0 943d 74af b93c
00000070: 67b1 e9bd 5ccc fe3d a934 d0bb c51b 723d
00000080: edb4 803d 7a66 61bd cf83 a73d 2f56 e13d
00000090: 0385 a1bd b62f d63b 3ae8 60bd 2ad6 f3bd
000000a0: 6d9d a4bd 8c35 993c 97e6 81bd 5516 ebbd
000000b0: b6f6 29bd 7dd9 fa3d 64a2 113e b82a 0bbe
000000c0: 4dc8 60bd c368 e8bb 8469 8bbd ddb5 ed3d
000000d0: 0790 2b3d d17c 18bd e746 c23d 67d9 48bc
000000e0: f9d5 13bd 860b 80bc 2dfe 6ebc c60b 2ebe
000000f0: 3911 813b e70a 053e 13bd 8dbd 4637 c33d
00000100: bcbd cf3d bfd4 3d3c 682a 84bd f423 07bd
00000110: 0e7d 80bd e017 a43d edf6 a6bd c5d3 5ebd
00000120: f796 cdbd 93c7 ab3b c96d c83c b476 fa3c
00000130: 92dd 1dbd be98 11bd e77c c1bd 70d1 86bc
00000140: 4027 963c c7fa 3a3d 6b27 bdbd 39d6 75bc
00000150: 6867 023b 7307 01bd 2b3b 4dbd 9146 bf3b
00000160: 0496 683b 1bc3 d23d 19df 60bd 6271 043e
00000170: 5784 2cbe 0435 cabd b41b f53c 5368 043d
00000180: 906b 723d 351e 8cbd 6aae 283d 299f 8e3d
00000190: bf2a d53d f0e9 b0bc 3912 c43d 4427 9a3d
000001a0: 79fe 79bd a523 183e 8b6f 4b3e ff8b a8bd
000001b0: 44d9 8bbb cd7b b3ba 0b25 18be 83db 92bd
000001c0: b7f8 bebe 160f 88be 666a 203d 7c80 0dbd
000001d0: bc5f e13d 46f0 d1bd 1954 3abd e12b 453d
000001e0: a6d3 213e 2c46 0d3d 36ea 93bd 937d d1bd
000001f0: 40dd f13d 3412 09bd fd9d 22bd 47e8 8c3c
00000200: aaac 013e 8fd5 0d3d 374f 6c3d f6ed c3bd
00000210: f122 143d 7413 6d3d 9c06 1a3c 05e3 63bd
00000220: 1e29 7fbd dfaf 1dbd 436b c83c cfeb d9bc
00000230: f8f8 95bc 3c80 883c a109 aebd c689 ddbc
00000240: 1344 3c3d b3f9 fb3a 2391 3fbd 35f0 9a3d
00000250: b346 3e3e c23a c33d 98ef d63d 65d8 343d
00000260: b78e f7bc c868 073d 2393 703d f2f2 fe3d
00000270: f963 e3bc 83db fb39 b509 c7bc 0770 e7bc
00000280: a450 3e3d 7883 e3bd c476 d1bc 8eff 87bd
00000290: 93a1 8fbd 2658 9c3d afbf c2bd 925a 83bd
000002a0: e63c 9bbd bee7 80bd 36c8 04be 1424 eabd
000002b0: 942d 813d a94e 82bd ba4e 5b3d 9819 cabd
000002c0: 1171 523d df0d 60bb 0e37 9ebd b59f 833d
000002d0: 3e0a 283d 7bd1 03bc 4242 6a3b 5f9a 07be
000002e0: c6b1 ad3d 0235 a03d 808c d9bd 8bdb 87bc
000002f0: 64ff 843d 7bc9 30bd d97a 423e 9c9e 72bb
00000300: f69b 42be 91d3 083e f2a4 943d 916e 493d
00000310: 8048 8bbc 72ae 40be 656c 1d3d 28c8 70bd
00000320: 737e a1bd 7405 b8bd a267 20bc 7070 6bbc
00000330: 074f 273d 75b0 2dbe 84b3 5a3d 5c73 11bd
00000340: d313 8d3d 9a22 9b3d 628a db3d c408 ac3c
00000350: 2603 f93c 4b0a b33d 9dfd d2bd 5504 9f3d
00000360: acc3 23bd 61d5 a53b 5936 4fbe e2d5 8b3c
00000370: c700 b3bd e93e 8abc 1912 a9bc 5764 f7bd
00000380: bcd6 03bc 9011 07be 77b0 c53c 6025 9c3d
00000390: 3986 503e 0a0a 5f3d 0787 343d 6842 a93d
000003a0: eb5d b3bd 18e0 cc3c 1b66 95bd b6df 9f3c
000003b0: 9809 13bd ece5 2b3e 5612 4fbc 1718 d03d
000003c0: a364 5ebb 8cce 153d ebb1 a63d 29ce 603d
000003d0: 2c74 ca3c ac5a b23d 3947 24be f422 c33d
000003e0: 938e a5bb d1c6 9abb c37b 90bd 8a5f 3f3d
000003f0: 8de4 b1bd 266b 2fbc eec5 54bd 476d 3e3c

encoder2.bias f4 [100]
0.05859949 -0.051047448 0.009894318 -0.028167333 0.03454945 0.065576605 -0.020386966 -0.00055023143
-0.046683673 0.07817106 0.015365104 -0.04787235 0.11144318 -0.07521102 0.0052218875 -0.024872214
-0.029135836 -0.012095091 0.07819405 0.038157973 0.041255314 0.11319225 -0.011469379 -0.08243222
0.0058026025 -0.09608097 -0.07207118 -0.0027655053 0.011478882 0.08611348 0.07285323 -0.08571237
0.038204577 0.10400156 0.08730674 0.052178856 -0.051225256 0.03744322 -0.068173796 -0.024080789
-0.03427765 0.03953469 0.057685487 0.054052766 0.08131486 -0.020489924 0.056569554 0.0868063
-0.07621695 0.0058214646 0.030236036 0.025375133 -0.009963724 0.09297283 0.104182504 0.023246076
0.085280225 -0.06483516 0.0669785 0.05020013 0.0014781079 -0.06402444 -0.112400025 0.09458214
-0.12560813 -0.0070854183 0.030743118 -0.13709794 0.004674199 -0.11175615 0.006135157 0.041020695
-0.071189046 0.02637013 -0.11735296 0.048902355 -0.041767012 -0.042013865 0.024395676 -0.13391422
0.06936955 0.029004993 -0.049278516 -0.005191007 -0.106786005 0.014343429 0.020868381 0.04966819
0.025925163 -0.11324528 0.02014537 -0.12747794 0.08834954 0.030910328 0.065422356 0.0044002435
0.04745172 -0.06920743 0.0021138927 -0.09510142
00000000: 0506 703d 2117 51bd c71b 223c 2ebf e6bc
00000010: b983 0d3d 074d 863d 9102 a7bc 683d 10ba
00000020: 6137 3fbd 2618 a03d ebbd 7b3c cc15 44bd
00000030: 523c e43d 3c08 9abd 5e1c ab3b d0c0 cbbc
00000040: 47ae eebc 7d2a 46bc 3424 a03d 894b 1c3d
00000050: 55fb 283d 57d1 e73d 10ea 3bbc 39d2 a8bd
00000060: c223 be3b 19c6 c4bd 0e9a 93bd 7b3d 35bb
00000070: ec11 3c3c 445c b03d 1334 953d f889 afbd
00000080: 677c 1c3d c5fe d43d e0cd b23d 7fb9 553d
00000090: 93d1 51bd 105e 193d b49e 8bbd 1345 c5bc
000000a0: b966 0cbd 21ef 213d 9e47 6c3d 6f66 5d3d
000000b0: 6888 a63d 7cda a7bc 7ab5 673d 80c7 b13d
000000c0: a217 9cbd fcc1 be3b 90b1 f73c 83df cf3c
000000d0: e33e 23bc 8a68 be3d a35d d53d 8e6e be3c
000000e0: 66a7 ae3d 4cc8 84bd 062c 893d a79e 4d3d
000000f0: 12bd c13a 3f1f 83bd fc31 e6bd 48b4 c13d
00000100: 6b9f 00be cc2c e8bb fed8 fb3c 6763 0cbe
00000110: 062a 993b 69e0 e4bd 6d09 c93b 5105 283d
00000120: 90cb 91bd 2c06 d83c c056 f0bd d64d 483d
00000130: e313 2bbd bb16 2cbd 71d9 c73c cf20 09be
00000140: 9f11 8e3d e19b ed3c 45d8 49bd 5319 aabb
00000150: 9fb2 dabd b400 6b3c 2bf4 aa3c df70 4b3d
00000160: 0261 d43c 24ed e7bd e707 a53c 9489 02be
00000170: 9bf0 b43d a837 fd3c 28fc 853d eb2f 903b
00000180: bc5c 423d a0bc 8dbd 3c89 0a3b 89c4 c2bd

encoder3.weight f4 [20, 100]
-0.07866012 0.03439981 0.005330998 -0.07827093 -0.012130786 -0.0149458945 0.03539457 -0.081225395
0.039320458 -0.01347154 0.08923292 0.0100930035 0.08010912 0.037755772 0.06059598 0.011426445
-0.05481118 0.09727322 0.01730629 0.028763764 0.03002459 -0.024156468 -0.047484964 0.02983322
0.06831775 -0.029742666 0.025226865 -0.101985954 0.056480575 -0.03663959 -0.0087396605 0.012658918
0.062145546 0.06802074 0.014043056 -0.021653391 -0.0044790762 -0.0393143 -0.004714644 0.055972684
0.005971752 0.019888848 -0.0884214 0.08451772 -0.072522245 0.022620993 0.04518264 0.18277451
-0.08418721 0.048428353 -0.009721099 -0.053198572 -0.007892565 0.050896894 -0.0697738 -0.019807588
0.032067847 0.026473664 -0.079355754 -0.039493322 0.014937352 0.02194014 0.048260603 0.06312709
0.005293777 0.004270886 0.051327083 -0.08099284 -0.090063915 0.03637479 -0.07316216 0.056517128
-0.050274197 0.021353435 -0.011363134 -0.025948709 -0.09622264 -0.01649979 -0.034882784 -0.022717424
-0.05157674 0.014380869 -0.06821514 0.032077793 -0.047951702 0.10542059 0.12004661 -0.0023025242
0.14619362 0.06245873 0.0727197 -0.03697177 0.0015714131 -0.018146133 -0.014241901 -0.01856239
-0.08897592 -0.044806216 -0.0014276459 -0.015843417 -0.021921804 -0.06309571 -0.026433183 0.08878842
-0.01936454 0.05672847 -0.030375589 -0.034591313 -0.020701721 0.110243596 -0.0061634206 0.09407797
0.069395 -0.061557453 0.040336907 -0.0059679826 0.058074333 -0.04099553 0.06607577 -0.06130249
0.05726152 0.07027697 0.027396323 0.104899526 0.09233638 -0.014499142 -0.01569549 -0.09090456
0.037569832 0.071412705 -0.028696 -0.058802526 -0.09373795 -0.0108341025 -0.07765159 0.034651738
0.07670101 0.025116486 0.046608683 -0.03959296 -0.035621345 -0.0010237907 0.07285171 0.10416586
-0.026464075 0.08323911 0.026551703 0.012373303 0.0547985 0.11397567 -0.082872674 0.049557496
0.0324963 0.025449706 -0.018313533 -0.09532756 0.05622828 0.12855306 -0.014275985 0.19807072
0.019523442 -0.05242178 -0.02420423 0.07444499 -0.030920712 -0.030949118 0.009674695 0.0054201963
-0.094054945 -0.07798385 -0.08774674 -0.04463824 0.06273091 0.11788849 0.047616348 -0.035070166
-0.023812586 -0.013589508 -0.04700845 0.008568246 -0.014174407 -0.055900656 0.08050442 -0.08913209
-0.039592884 -0.0037888964 -0.04926101 0.028896987 -0.0047627934 0.067904435 -0.07221001 -0.0981087
-0.09022445 -0.055546705 -0.0041810586 -0.04406062 0.066131406 0.0151128005 -0.019480487 -0.09740197
-0.068353005 0.07860976 -0.02449937 0.0769726 0.03880232 -0.03306363 -0.007362297 -0.0040450566
-0.091457516 -0.07090875 -0.0648483 0.049144305 -0.045693085 0.06348265 0.05080831 0.056270014
-0.011879377 0.016428214 0.017355692 -0.003957754 0.07002618 0.117715165 -0.0059992676 0.031757932
0.10274198 -0.022881115 -0.01056931 0.02539373 -0.033938844 0.02152597 -0.009006322 0.032895703
0.08582528 0.02986907 0.036190324 0.04168989 0.12535848 0.0132860895 -0.06079089 -0.023081118
0.12305431 0.25486398 0.0024197798 -0.035977796 -0.034290556 -0.014069584 -0.0531516 0.121522866
0.0067247865 0.036904834 0.080389455 0.15308896 0.063449934 0.039599944 0.030005379 0.012374724
00000000: 8f18 a1bd d1e6 0c3d a7af ae3b 824c a0bd
00000010: 34c0 46bc a0df 74bc e6f9 103d 8059 a6bd
00000020: 7d0e 213d bcb7 5cbc c0bf b63d 205d 253c
00000030: 4010 a43d cca5 1a3d 7e33 783d fc35 3b3c
00000040: b081 60bd 2f37 c73d ecc5 8d3c fca1 eb3c
00000050: 21f6 f53c c9e3 c5bc 987f 42bd cc64 f43c
00000060: 2dea 8b3d e4a6 f3bc 92a8 ce3c 03de d0bd
00000070: 2d58 673d 6513 16bd cb30 0fbc 5a67 4f3c
00000080: 548c 7e3d 754e 8b3d d914 663c 7462 b1bc
00000090: 37c5 92bb 0808 21bd 4d7d 9abb 9d43 653d
000000a0: b0ae c33b f0ed a23c 4716 b5bd a017 ad3d
000000b0: 8b86 94bd a94f b93c 6f11 393d 3e29 3b3e
000000c0: 586a acbd cf5c 463d 3f45 1fbc bfe6 59bd
000000d0: d14f 01bc 4379 503d 91e5 8ebd 8643 a2bc
000000e0: 9359 033d 4cdf d83c 4585 a2bd c0c3 21bd
000000f0: ccbb 743c cfbb b33c e9ac 453d c748 813d
00000100: 6c77 ad3b caf2 8b3b 593c 523d 93df a5bd
00000110: 6e73 b8bd bbfd 143d 0bd6 95bd 817e 673d
00000120: 51ec 4dbd 66ed ae3c 702c 3abc 6392 d4bc
00000130: 6010 c5bd 912a 87bc 40e1 0ebd e419 babc
00000140: 2242 53bd bd9d 6b3c 61b4 8bbd 0164 033d
00000150: 0169 44bd c0e6 d73d ffda f53d f2e5 16bb
00000160: c8b3 153e bad4 7f3d 11ee 943d b66f 17bd
00000170: e0f7 cd3a 33a7 94bc dd56 69bc 2710 98bc
00000180: 0239 b6bd b986 37bd d91f bbba 0eca 81bc
00000190: 5b95 b3bc 5338 81bd 678a d8bc b4d6 b53d
000001a0: 62a2 9ebc 1d5c 683d 3ad6 f8bc 9faf 0dbd
000001b0: a896 a9bc 65c7 e13d 85f6 c9bb f3ab c03d
000001c0: f71e 8e3d ab23 7cbd 5038 253d 118f c3bb
000001d0: 5adf 6d3d eeea 27bd bc52 873d 5218 7bbd
000001e0: 0e8b 6a3d 5fed 8f3d 416e e03c 90d5 d63d
000001f0: db1a bd3d cf8d 6dbc d493 80bc 2c2c babd
00000200: d3e2 193d d340 923d e013 ebbc ebda 70bd
00000210: aff9 bfbd 8581 31bc cc07 9fbd fbee 0d3d
00000220: 6b15 9d3d 17c1 cd3c bfe8 3e3d 3a2c 22bd
00000230: b0e7 11bd b730 86ba 4733 953d e954 d53d
00000240: 30cb d8bc 4479 aa3d f582 d93c 65b9 4a3c
00000250: 6474 603d 136c e93d 26b9 a9bd cdfc 4a3d
00000260: d71a 053d e77b d03c 4306 96bc 193b c3bd
00000270: a04f 663d 6aa3 033e d2e5 69bc 0dd3 4a3e
00000280: a0ef 9f3c 38b8 56bd f347 c6bc 9d76 983d
00000290: 6f4d fdbc 0189 fdbc 9d82 1e3c e79b b13b
000002a0: e19f c0bd ffb5 9fbd 90b4 b3bd 96d6 36bd
000002b0: 1079 803d 856f f13d 5c09 433d bca5 0fbd
000002c0: 9d12 c3bc 87a6 5ebc ef8b 40bd d461 0c3c
000002d0: c63b 68bc 16f8 64bd 80df a43d e38a b6bd
000002e0: 262c 22bd 224f 78bb eac5 49bd 60b9 ec3c
000002f0: 3511 9cbb 7b11 8b3d d7e2 93bd 37ed c8bd
00000300: 99c7 b8bd f184 63bd 4301 89bb e978 34bd
00000310: e76f 873d ae9b 773c 8b95 9fbc af7a c7bd
00000320: a9fc 8bbd 27fe a03d e7b2 c8bc cfa3 9d3d
00000330: 2eef 1e3d bb6d 07bd 6c3f f1bb 658c 84bb
00000340: 144e bbbd 9b38 91bd 2fcf 84bd 8a4b 493d
00000350: ac28 3bbd 3103 823d 601c 503d 637b 663d
00000360: b8a1 42bc 7694 863c 862d 8e3c 0cb0 81bb
00000370: e369 8f3d a614 f13d 8195 c4bb 9b14 023d
00000380: 636a d23d 2d71 bbbc e62a 2dbc 8306 d03c
00000390: 7503 0bbd 3b57 b03c 418f 13bc a5bd 063d
000003a0: 2ac5 af3d fbaf f43c 4e3c 143d 05c3 2a3d
000003b0: f95d 003e e6ad 593c deff 78bd 9d14 bdbc
000003c0: e603 fc3d 887d 823e 2b95 1e3b 745d 13bd
000003d0: 4174 0cbd 1d84 66bc 7eb5 59bd fbe0 f83d
000003e0: 995b dc3b 8629 173d 3aa3 a43d 5ac3 1c3e
000003f0: 0af2 813d 8d33 223d d7cd f53c 5bbf 4a3c

encoder3.bias f4 [20]
0.05011469 -0.04972519 -0.058256716 -0.08066063 0.002584849 0.04384574 0.0043002614 0.14019914
-0.025863934 -0.056050252 0.09185007 -0.0210822 0.035652004 -0.011278086 -0.02899951 0.10666345
-0.052888412 -0.055869766 0.037136685 -0.054487213
00000000: 1045 4d3d a4ac 4bbd 989e 6ebd 6631 a5bd
00000010: 9266 293b 9797 333d 35e9 8c3b 5d90 0f3e
00000020: 9ae0 d3bc f394 65bd e41b bc3d 94b4 acbc
00000030: d607 123d b9c7 38bc 6190 edbc 5e72 da3d
00000040: 85a1 58bd b2d7 64bd a31c 183d fc2d 5fbd

decoder1.weight f4 [100, 20]
-0.061426714 0.077044845 -0.065814316 0.076009646 0.12056798 0.07607237 -0.06151654 -0.07250902
0.11357298 -0.041647483 -0.019781346 0.015012763 -0.114346825 0.20485905 0.0001470353 -0.040794045
-0.024525575 -0.008065766 -0.09492013 0.020016318 0.011008464 -0.10149165 -0.07818983 -0.12644914
-0.0062576174 -0.03611509 -0.03633697 0.09983349 -0.15716569 -0.037446473 0.35935184 -0.4911585
-0.16501087 0.17132811 -0.2523427 -0.19187582 -0.013756468 0.37792653 -0.34813708 0.15642242
0.059482142 0.3042787 -0.5511333 -0.062295455 0.020704467 0.21333118 0.13882704 0.10202673
-0.09643502 -0.011973345 0.10767184 -0.23356746 0.03982609 -0.077953614 0.09581429 -0.5031471
0.07927887 -0.021420714 -0.0023532438 -0.13302222 0.04788632 0.05102347 0.11539014 -0.13318236
-0.037263274 0.021339588 -0.017948281 -0.0056809396 -0.0019852528 -0.07456781 0.07620336 0.10090009
-0.079608284 -0.09167179 -0.013036962 0.10511321 0.047220465 -0.0024273146 0.012579731 -0.056472473
-0.13672836 -0.008116642 0.019233625 -0.036054343 0.049558893 0.09396153 -0.048736557 0.14465497
-0.020675477 -0.07819823 0.008697646 -0.09541167 -0.040970616 0.09023001 -0.048004996 0.20468736
-0.114271306 -0.13719854 0.08568239 0.15351999 -0.016503435 -0.05352823 0.008389144 -0.10555598
0.010744093 -0.11987094 -0.15100588 0.15227541 0.041762345 0.12499887 0.03917006 -0.0012184227
0.12470326 -0.1278378 0.04603007 0.0044324063 -0.029559879 0.14849935 -0.06549334 0.12217061
0.63881135 0.19791086 -0.07176774 -0.29633158 -0.18880036 0.042647492 0.18013236 -0.99112654
-0.18899164 -0.45844987 -0.1078268 0.44082296 -1.0194315 0.42465907 -0.1820381 -0.008802565
-0.27347836 -0.25193977 -0.12898454 0.4474228 0.13638785 -0.011655856 -0.10681056 -0.13689233
-0.06623842 -0.14758976 0.062272083 -0.021127585 0.07086724 0.07067834 -0.052688714 0.018562058
-0.0674702 0.15870184 -0.081540406 0.09126018 0.07326756 -0.015923552 0.07454238 0.034527086
0.4256388 -0.6003852 0.021084096 0.0013389512 0.38888317 -0.24751644 0.113880314 -0.24566324
-0.119620144 0.08153414 -0.24051385 0.25019726 0.18127424 -0.08905384 -0.121446654 0.1303557
0.094109595 0.12076317 0.20411204 -0.33230162 -0.36679852 0.0036616772 0.12978941 -0.11284787
-0.13514735 -0.031104777 -0.07897698 -0.39227462 -0.14556837 0.21127608 0.18108182 -0.054028973
0.07745978 0.08466616 -0.08072157 0.42587247 -0.31995356 -0.04748989 -0.32134104 0.10607712
0.1967146 -0.13038231 -0.14891542 0.09706372 -0.24861085 0.17238596 0.16129798 -0.27666795
-0.053845767 0.02897234 -0.29659256 -0.06089872 -0.09230367 -0.30806196 0.09867045 -0.043512426
-0.002968447 -0.05683974 0.2128322 0.04582562 -0.06523883 0.019034507 0.0024524827 0.105012365
0.17474441 0.0062972927 -0.06812782 0.103544496 -0.05467867 -0.079152 -0.022879437 -0.062503345
-0.11187911 0.105746925 0.06124681 0.20610745 0.24480799 0.0904811 -0.13761266 -0.099069886
-0.19570805 0.2399843 0.2724278 -0.089236595 -0.264081 -0.32277143 0.06690967 0.14843631
-0.13238968 0.07448671 0.025079662 0.10751093 -0.059040595 -0.13173422 -0.052859575 0.17842226
00000000: 949a 7bbd b0c9 9d3d a8c9 86bd f2aa 9b3d
00000010: 58ec f63d d5cb 9b3d c4f8 7bbd 9c7f 94bd
00000020: f398 e83d 8d96 2abd 7d0c a2bc 18f8 753c
00000030: ab2e eabd 92c6 513e 7d2d 1a39 a817 27bd
00000040: dce9 c8bc 4626 04bc 7c65 c2bd 43f9 a33c
00000050: d85c 343c dbda cfbd fd21 a0bd e27b 01be
00000060: b30c cdbb 6bed 13bd 13d6 14bd 8075 cc3d
00000070: 0bf0 20be 7961 19bd f7fc b73e 2079 fbbe
00000080: 9cf8 28be a370 2f3e 1033 81be 187b 44be
00000090: cf62 61bc 967f c13e 063f b2be 332d 203e
000000a0: 8ca3 733d 6bca 9b3e 1217 0dbf 8529 7fbd
000000b0: 6a9c a93c 7d73 5a3e ad28 0e3e 64f3 d03d
000000c0: b97f c5bd d92b 44bc 0e83 dc3d 4f2c 6fbe
000000d0: af20 233d 25a6 9fbd 483a c43d 40ce 00bf
000000e0: f65c a23d 7e7a afbc e138 1abb fa36 08be
000000f0: 7224 443d fcfd 503d aa51 ec3d f560 08be
00000100: 60a1 18bd 5cd0 ae3c 4608 93bc 2d27 babb
00000110: 041b 02bb 02b7 98bd 8210 9c3d b5a4 ce3d
00000120: ab09 a3bd 6bbe bbbd fb98 55bc 9845 d73d
00000130: 3f6a 413d 9513 1fbb 371b 4e3c ae4f 67bd
00000140: 8502 0cbe aafb 04bc d68f 9d3c b8ad 13bd
00000150: 44fe 4a3d e76e c03d fc9f 47bd 6f20 143e
00000160: 9e5f a9bc 6526 a0bd 9280 0e3c 3267 c3bd
00000170: ced0 27bd 83ca b83d e3a0 44bd 9099 513e
00000180: 1307 eabd c67d 0cbe 407a af3d 5834 1d3e
00000190: 3632 87bc 6b40 5bbd 9f72 093c bc2d d8bd
000001a0: fe07 303c e57e f5bd 49a1 1abe 16ee 1b3e
000001b0: fe0e 2b3d 68ff ff3d c970 203d 7bb3 9fba
000001c0: 6c64 ff3d eae7 02be 078a 3c3d b83d 913b
000001d0: 8f27 f2bc 3710 183e 5f21 86bd 9634 fa3d
000001e0: 2489 233f 25a9 4a3e f7fa 92bd c6b8 97be
000001f0: e254 41be 23af 2e3d 9e74 383e 78ba 7dbf
00000200: 0687 41be f1b9 eabe 4cd4 dcbd 8cb3 e13e
00000210: bb7c 82bf ea6c d93e 3268 3abe a238 10bc
00000220: 5b05 8cbe 40fe 80be 8614 04be 9a14 e53e
00000230: 42a9 0b3e 34f8 3ebc 7fbf dabd 812d 0cbe
00000240: 02a8 87bd c521 17be 0311 7f3d c213 adbc
00000250: d822 913d cebf 903d 1fd0 57bd 750f 983c
00000260: d12d 8abd bc82 223e a8fe a6bd 9ee6 ba3d
00000270: 4d0d 963d 1c72 82bc ada9 983d 466c 0d3d
00000280: 54ed d93e d8b2 19bf 8eb8 ac3c bf7f af3a
00000290: b21b c73e f374 7dbe 153a e93d 258f 7bbe
000002a0: 68fb f4bd 5ffb a63d 4349 76be db19 803e
000002b0: f49f 393e dc61 b6bd 06b9 f8bd f77b 053e
000002c0: 88bc c03d ae52 f73d bf02 513e 7023 aabe
000002d0: 04cd bbbe c0f8 6f3b 84e7 043e c91c e7bd
000002e0: 1164 0abe 72cf febc afbe a1bd 38d8 c8be
000002f0: e00f 15be c258 583e 836d 393e 7c4d 5dbd
00000300: 3ca3 9e3d 7465 ad3d 5a51 a5bd f50b da3e
00000310: f4d0 a3be c284 42bd d086 a4be f63e d93d
00000320: 8d6f 493e f182 05be 497d 18be 58c9 c63d
00000330: d893 7ebe f285 303e 4c2b 253e 6ca7 8dbe
00000340: 618d 5cbd 6757 ed3c fbda 97be f070 79bd
00000350: b509 bdbd 4cba 9dbe bc13 ca3d 163a 32bd
00000360: 478a 42bb cad0 68bd aff0 593e a5b3 3b3d
00000370: f09b 85bd 41ee 9b3c d5b9 203b b910 d73d
00000380: 33f0 323e 8559 ce3b 9986 8bbd 230f d43d
00000390: bef6 5fbd 721a a2bd a86d bbbc c101 80bd
000003a0: e020 e5bd d891 d83d efdd 7a3d d50d 533e
000003b0: f2ae 7a3e 284e b93d 55ea 0cbe 27e5 cabd
000003c0: b167 48be 72be 753e a87b 8b3e adc1 b6bd
000003d0: a035 87be 4c42 a5be f007 893d b0ff 173e
000003e0: 2991 07be 7d8c 983d dd73 cd3c b12e dc3d
000003f0: 8dd4 71bd 56e5 06be 4883 58bd 53b4 363e

decoder1.bias f4 [100]
-0.012250966 0.1700029 0.16395304 0.016326867 -0.2544909 -0.07658046 -0.4895446 0.22953115
-0.18970416 0.17827901 -0.297445 -0.3872818 -0.18397029 -0.18388736 0.15752424 0.03984859
-0.022543622 0.15277287 -0.09537745 -0.5294737 -0.176344 -0.18834133 0.1578598 -0.36092407
0.08274113 0.31277847 0.14428921 -0.06140553 0.32890922 -0.14323312 0.03173684 0.15789774
0.39985225 0.17439936 -0.14953065 -0.4537371 0.45610416 -0.09667139 0.103770174 0.2185951
0.33432254 0.49420425 0.34810904 -0.36541948 -0.3078287 -0.25246507 -0.30406478 0.061878294
-0.3660678 -0.06478231 0.35730875 -0.26481894 -0.4929006 -0.27234823 -0.45708174 -0.3004043
-0.28374836 -0.27936468 -0.047264293 -0.122883014 -0.22204289 -0.26272556 0.21203563 -0.050790194
0.14190422 0.1977551 0.3411135 0.00834095 -0.062193472 0.036971528 -0.09710265 -0.55347395
0.0754564 -0.37746847 0.15818019 -0.16848502 0.3100154 -0.23896736 -0.13821396 -0.30065578
0.26392102 0.31607044 -0.014870702 -0.35141194 0.2038946 0.16328292 -0.014077002 -0.16242689
-0.111732334 -0.16361538 -0.38553658 0.079115674 -0.33456087 -0.22127147 -0.25970823 -0.31701106
0.091634996 0.041067746 0.18488118 0.4448612
00000000: 47b8 48bc 3d15 2e3e 4ee3 273e ecbf 853c
00000010: a24c 82be 37d6 9cbd 97a5 fabe 370a 6b3e
00000020: cf41 42be c68e 363e b64a 98be cd49 c6be
00000030: b562 3cbe f84c 3cbe 094e 213e 4638 233d
00000040: 67ad b8bc 7e70 1c3e 4155 c3bd 978b 07bf
00000050: 8693 34be 8ddc 40be 00a6 213e 0acb b8be
00000060: 2e74 a93d 8024 a03e 8dc0 133e 5d84 7bbd
00000070: ca66 a83e b4ab 12be 7dfe 013d f2af 213e
00000080: 6fb9 cc3e bf95 323e 901e 19be 3b50 e8be
00000090: 7c86 e93e a6fb c5bd 7585 d43d 65d7 5f3e
000000a0: 532c ab3e 5708 fd3e 593b b23e 4318 bbbe
000000b0: b99b 9dbe 1a43 81be 61ae 9bbe 1874 7d3d
000000c0: 3d6d bbbe 96ac 84bd 2cf1 b63e 5996 87be
000000d0: 785d fcbe 3a71 8bbe 9e06 eabe 98ce 99be
000000e0: 7747 91be e308 8fbe 3498 41bd 17aa fbbd
000000f0: 365f 63be f783 86be de1f 593e 6109 50bd
00000100: 574f 113e 5080 4a3e 6ea6 ae3e 7ba8 083c
00000110: 95be 7ebd 756f 173d c1dd c6bd 78b0 0dbf
00000120: e388 9a3d 8c43 c1be fdf9 213e 5687 2cbe
00000130: 57ba 9e3e dcb3 74be f687 0dbe 8eef 99be
00000140: a820 873e fcd3 a13e 3fa4 73bc 44ec b3be
00000150: bfc9 503e a333 273e 3aa3 66bc 3c53 26be
00000160: ecd3 e4bd ca8a 27be 0d65 c5be 6607 a23d
00000170: 904b abbe fd94 62be 7af8 84be 464f a2be
00000180: 21ab bb3d a736 283d 7e51 3d3e d9c4 e33e

decoder2.weight f4 [702, 100]
-0.09801683 0.031606033 0.023311589 -0.14215077 -0.02334454 -0.00013814346 0.06669551 0.06546004
-0.03873322 -0.0042467075 -0.027814671 -0.24949916 -0.04881099 0.055803373 -0.12531544 -0.058044963
0.05610962 -0.05150006 0.06579892 -0.026912918 0.016271867 -0.096457295 -0.1223956 -0.10495108
0.12810773 0.17008992 0.015200477 -0.019494483 -0.06253568 -0.067923635 0.23088838 -0.14835887
0.10232513 0.014664338 -0.15835306 -0.006151883 0.20465323 0.020265125 -0.0634862 -0.97039926
-0.062561795 -0.08015822 0.13821627 -0.13582315 0.14363113 0.024325546 0.066292 0.17144573
0.25665376 -0.0357439 -0.2440492 0.21225199 -0.29629087 -0.22925682 0.0553914 0.031964213
-0.00588978 0.03807326 -0.11733717 -0.056710247 -0.12170054 -0.10820091 0.19009021 -0.12364412
-0.35049522 -0.05975629 1.5505016 0.25592822 -0.018355152 -0.046533447 0.03605964 -0.037408773
0.12066414 -0.03771127 0.0021269624 0.044574596 0.34157327 0.5142736 0.0052682487 -0.027134977
0.02873657 0.14520301 0.015085648 -0.008546958 0.081342794 -0.10495974 -0.019361936 -0.2683878
-0.025054056 -0.049314816 -0.042452127 -0.008487386 0.079104744 0.0046534617 0.34077984 0.04956395
0.006493588 0.010458677 -0.25033766 -0.11212535 0.017455678 -0.03693806 -0.0050495965 0.15258402
0.019990183 -0.039215967 -0.06591808 -0.08342962 0.04846974 0.0077953516 0.018517174 0.20597957
0.03937804 -0.052098848 0.11455369 0.05716893 -0.0404661 0.064049 -0.054111976 0.039162163
-0.0161354 0.07307516 0.11926966 0.043100603 -0.046580046 -0.13081607 -0.0062577557 0.028929079
0.1207516 0.04379072 -0.115881994 0.14656752 -0.024130108 -0.024853144 0.15143482 0.004587375
-0.14478415 -0.041436516 0.040211968 0.97220176 -0.003937892 0.108293295 -0.12337775 0.21313928
-0.14429028 -0.03375584 -0.05224734 -0.17014079 -0.35101354 -0.035592765 0.35007262 -0.23914735
0.2892065 0.2173537 -0.08714211 -0.03593499 -0.018525396 -0.03843268 0.12284074 0.079466045
0.12259475 0.121742785 -0.13845047 0.13259265 0.3970497 0.056526408 -1.5593954 -0.19585428
0.028198292 0.024259608 -0.008672657 -0.092120335 -0.12670496 -0.007693357 -0.007415381 -0.048629217
-0.26229548 -0.51015794 -0.019387567 0.0065424438 0.064175576 -0.10903329 -0.039298844 0.018302646
-0.05345841 0.1605388 0.023811977 0.2529776 0.031255543 0.037563477 -0.00022121094 0.011209775
-0.13358821 -0.0018800249 -0.35809547 -0.034824178 -0.014756792 -0.022037925 0.24903953 0.07540251
-0.0059814043 0.002842619 -0.0041445703 0.0019812668 -0.025064291 0.00730338 -0.0010178793 0.024966406
-0.0009843934 0.005651483 -0.0014423358 -0.017155152 -0.0037542367 0.0017155833 -0.0023275565 -0.021118363
0.0019227109 -0.0028673995 -0.022747578 -0.0077215927 0.008310396 0.011690671 0.00093039585 -0.01830193
-0.0024284401 0.006830856 0.0019227403 -0.0056837066 0.009606719 0.0026159154 0.042283107 -0.0013923007
0.014609499 2.2886694e-05 0.004116537 0.0014139188 0.006095269 0.0011826515 0.011181626 -0.0071682935
0.0051849564 -0.01491281 0.0036136936 0.025966987 -0.0035177032 0.0007727122 0.057701703 -0.0035302984
-0.012759501 0.0015266993 0.010787335 -0.0035095369 0.0030225825 -0.004075452 0.0034088136 -0.0024328055
00000000: 0cbd c8bd 5475 013d f2f7 be3c f98f 11be
00000010: 0c3d bfbc 9ada 10b9 a897 883d ea0f 863d
00000020: baa6 1ebd f727 8bbb 98db e3bc b57c 7fbe
00000030: 08ee 47bd 1492 643d b152 00be 8ec0 6dbd
00000040: 33d3 653d baf1 52bd 96c1 863d 7b78 dcbc
00000050: 944c 853c 678b c5bd 8baa fabd 98f0 d6bd
00000060: ac2e 033e 0d2c 2e3e 6c0b 793c e5b2 9fbc
00000070: b512 80bd 8c1b 8bbd 016e 6c3e 63eb 17be
00000080: d68f d13d b142 703c 4e27 22be bc95 c9bb
00000090: 9e90 513e 0c03 a63c 0e05 82bd 166c 78bf
000000a0: 6620 80bd fe29 a4bd 9188 0d3e 3915 0bbe
000000b0: 0a14 133e 5e46 c73c 1ac4 873d 788f 2f3e
000000c0: 1f68 833e 3268 12bd 09e8 79be 9658 593e
000000d0: 70b3 97be 4dc2 6abe 18e2 623d e8ec 023d
000000e0: 0eff c0bb b5f2 1b3d 784e f0bd 0149 68bd
000000f0: 223e f9bd 7098 ddbd 02a7 423e 2139 fdbd
00000100: 1c74 b3be 03c3 74bd d676 c63f 0609 833e
00000110: 8b5d 96bc db99 3ebd 46b3 133d f139 19bd
00000120: c31e f73d 2277 1abd 8264 0b3b da93 363d
00000130: b1e2 ae3e 6fa7 033f 46a1 ac3b 2c4a debc
00000140: f568 eb3c 19b0 143e cb29 773c 8a08 0cbc
00000150: 0d97 a63d 22f5 d6bd ec9c 9ebc 206a 89be
00000160: 2a3e cdbc 55fe 49bd 48e2 2dbd ad0e 0bbc
00000170: ab01 a23d 117c 983b b27a ae3e 9203 4b3d
00000180: 2ac8 d43b df5a 2b3c 422c 80be faa1 e5bd
00000190: 36ff 8e3c 5d4c 17bd 1677 a5bb fc3e 1c3e
000001a0: 74c2 a33c eca0 20bd 0f00 87bd 26dd aabd
000001b0: 3588 463d 2670 ff3b 54b1 973c 4fec 523e
000001c0: de4a 213d 9a65 55bd 209b ea3d f829 6a3d
000001d0: c8bf 25bd 1f2c 833d 85a4 5dbd 8168 203d
000001e0: 632e 84bc 6ea8 953d a743 f43d 428a 303d
000001f0: b8ca 3ebd a6f4 05be dc0d cdbb adfc ec3c
00000200: 9d4c f73d e65d 333d 8a53 edbd cc15 163e
00000210: 81ac c5bc d298 cbbc bb11 1b3e b151 963b
00000220: 4c42 14be 56b9 29bd 4eb5 243d 37e2 783f
00000230: 6f09 81bb e0c8 dd3d 79ad fcbd 2f41 5a3e
00000240: d5c0 13be 9043 0abd 4f01 56bd 6339 2ebe
00000250: 0cb8 b3be b8c9 11bd b83c b33e 0be3 74be
00000260: e012 943e f891 5e3e 9077 b2bd 9130 13bd
00000270: 92c2 97bc 966b 1dbd ed93 fb3d 18bf a23d
00000280: f512 fb3d 4854 f93d f6c5 0dbe 5ec6 073e
00000290: 194a cb3e 3c88 673d 459a c7bf 068e 48be
000002a0: 1b00 e73c 16bc c63c c317 0ebc 96a9 bcbd
000002b0: f2be 01be 8e18 fcbb b9fc f2bb 6e2f 47bd
000002c0: 984b 86be b699 02bf add2 9ebc ff61 d63b
000002d0: 7c6e 833d d84c dfbd d3f7 20bd 6eef 953c
000002e0: 35f7 5abd 4864 243e 5611 c33c 4886 813e
000002f0: d005 003d 29dc 193d dcf4 67b9 34a9 373c
00000300: 59cb 08be 2b6b f6ba 4a58 b7be cca3 0ebd
00000310: 79c6 71bc e188 b4bc 3804 7f3e a26c 9a3d
00000320: a8ff c3bb 3c4b 3a3b 2dcf 87bb 24d8 013b
00000330: a153 cdbc 3151 ef3b 5d6a 85ba 5986 cc3c
00000340: c306 81ba 1330 b93b c20c bdba f688 8cbc
00000350: a409 76bb 6cdd e03a eb89 18bb 6b00 adbc
00000360: 7903 fc3a fbea 3bbb 2159 babc 6a05 fdbb
00000370: 5428 083c 3a8a 3f3c cfe5 733a eeed 95bc
00000380: 7726 1fbb 60d5 df3b 7504 fc3a 633e babb
00000390: 8065 1d3c c76f 2b3b 0d31 2d3d dc7d b6ba
000003a0: ae5c 6f3c cdfc bf37 04e4 863b 3e53 b93a
000003b0: d3ba c73b 3303 9b3a 2333 373c 01e4 eabb
000003c0: 91e6 a93b dc54 74bc b8d3 6c3b b8b8 d43c
000003d0: 4489 66bb d78f 4a3a 9f58 6c3d 945c 67bb
000003e0: 3a0d 51bc 871b c83a 5dbd 303c 4200 66bb
000003f0: 8516 463b 5f8b 85bb 6766 5f3b b46f 1fbb

decoder2.bias f4 [702]
0.052503224 0.12518626 -0.06597511 0.018782122 -0.16757894 -0.0037911132 -0.23835215 0.02942951
-0.039218847 0.07694775 -0.051504955 -0.1463892 0.047829516 -0.113794185 0.0060087084 0.06705754
0.23902442 0.057779886 -0.13605136 -0.054057144 -0.20601742 -0.07096366 -0.096282676 -0.027228568
-0.11422792 -0.0593054 -0.11645765 -0.1908517 -0.06383584 -0.025207292 0.03912953 -0.14079808
-0.01430962 -0.012506312 -0.1817239 -0.14138274 -0.26788253 -0.2038611 -0.20060341 -0.101555996
-0.17372398 -0.19384047 0.1038899 -0.0004691081 -0.0028789495 -0.06820242 -0.100153446 -0.09963515
-0.18679707 -0.019868156 0.042225435 -0.04857218 -0.103692986 -0.10130274 0.039086435 -0.2087249
-0.032257654 -0.15491387 -0.10605611 -0.122873485 -0.12726346 -0.04965771 -0.23703924 -0.13436067
-0.0038406856 -0.028184079 0.014953262 -0.040664233 -0.013275928 -0.14872915 -0.022360826 -0.069248736
0.03368542 -0.15293314 0.032434907 -0.014863271 -0.10053532 -0.2805755 -0.16664113 -0.14293371
-0.1973184 -0.10909249 -0.20679311 -0.1453565 0.103977285 0.09699413 0.045724582 0.02664509
-0.02837064 -0.050721683 -0.050924785 0.044975992 -0.09700442 -0.018747272 -0.058675095 -0.031380836
-0.017683912 -0.18090633 0.015603343 -0.23876363 -0.13239905 -0.13630444 -0.115167834 -0.05183031
-0.083038 -0.095607236 -0.2809518 -0.15205596 -0.09887126 -0.10217281 8.2003164e-05 -0.020134332
-0.03780395 -0.12647863 -0.043392528 -0.062233217 -0.004815123 -0.076360464 0.052104045 -0.09408068
-0.21783368 -0.15820457 -0.08670382 -0.10850897 -0.2687469 -0.25762886 -0.2400559 -0.22331786
0.054702476 0.04084492 0.048208952 -0.01874562 0.10676851 -0.045074403 -0.16891918 -0.07844239
-0.11869965 0.06730171 0.027737226 -0.06427427 0.009039564 -0.10535234 -0.10885372 -0.11810451
-0.058531754 -0.09105645 0.040987965 -0.15153678 -0.117491186 -0.08634253 -0.18075402 -0.18820633
-0.094253905 -0.069274284 -0.10767431 -0.06534829 -0.07340452 -0.18416958 -0.17816725 0.031631537
-0.084233254 -0.054431874 0.0014441335 -0.14544196 -0.2572167 -0.2159634 -0.25365454 -0.17182171
-0.25180402 -0.26664641 -0.10940459 -0.2388167 -0.030320613 0.09746884 -0.031794015 -0.070952035
-0.079669654 -0.04491745 -0.13745044 -0.045871936 -0.13716544 -0.07050439 -0.015111706 -0.056326848
-0.022374164 -0.044916112 0.036760416 -0.28503668 -0.07260114 -0.10173201 -0.063454755 -0.15623109
-0.14673644 -0.04403482 -0.20825164 -0.1392204 -0.030004814 -0.17245428 -0.08883667 -0.18317324
0.0068729604 -0.19764031 -0.030871822 -0.14226992 -0.06265875 -0.11907513 -0.060292378 -0.15898103
-0.11185459 -0.22332464 -0.16467662 -0.10784266 -0.219962 -0.12028865 -0.23600364 -0.11417432
-0.0007798764 -0.021287799 -0.04906201 -0.04124217 -0.12920128 0.039447762 -0.06506762 -0.1685925
-0.16376388 -0.006422098 -0.0042895204 0.08061296 0.045438275 -0.06854502 -0.104790166 -0.124465816
-0.05372924 -0.013349758 -0.13050796 -0.021080753 -0.16550046 -0.0643309 -0.24496487 -0.111511625
-0.16003716 -0.07533531 -0.16312325 -0.094937846 -0.06651129 -0.2570348 -0.05713217 -0.08295965
-0.17445645 -0.17028685 -0.13924149 -0.09294047 -0.22607157 -0.16697228 -0.21960545 -0.21351232
00000000: 9f0d 573d d430 003e f51d 87bd f7dc 993c
00000010: d099 2bbe 5374 78bb 9612 74be 2816 f13c
00000020: f1a3 20bd c896 9d3d dcf6 52bd 0de7 15be
00000030: e2e8 433d ed0c e9bd b3e4 c43b 7755 893d
00000040: d1c2 743e 9aaa 6c3d 0c51 0bbe 066b 5dbd
00000050: 3bf6 52be 6555 91bd da2f c5bd 720e dfbc
00000060: 54f0 e9bd 38ea 72bd 5981 eebd a16e 43be
00000070: 5dbc 82bd 867f cebc 4946 203d 5f2d 10be
00000080: e572 6abc 46e7 4cbc d415 3abe a3c6 10be
00000090: e627 89be f7c0 50be fb6a 4dbe 97fc cfbd
000000a0: b3e4 31be 1e7e 46be 3ac4 d43d a0f2 f5b9
000000b0: c2ac 3cbb b6ad 8bbd 401d cdbd 830d ccbd
000000c0: bb47 3fbe 8bc2 a2bc 94f4 2c3d 9ff3 46bd
000000d0: fd5c d4bd d077 cfbd 1919 203d fbbb 55be
000000e0: 9a20 04bd bea1 1ebe f233 d9bd 18a5 fbbd
000000f0: 5a51 02be e265 4bbd 6aba 72be d895 09be
00000100: 03b4 7bbb 4ce2 e6bc 87fe 743c 8a8f 26bd
00000110: 4783 59bc 744c 18be 0d2e b7bc 48d2 8dbd
00000120: b9f9 093d 819a 1cbe 77da 043d 1485 73bc
00000130: 76e5 cdbd 98a7 8fbe f9a3 2abe 375d 12be
00000140: d60d 4abe e26b dfbd 93c1 53be 56d8 14be
00000150: 0bf2 d43d dca4 c63d b349 3b3d ce46 da3c
00000160: 8b69 e8bc 8ac1 4fbd 8296 50bd bf38 383d
00000170: 41aa c6bd e193 99bc 4c55 70bd 3189 00bd
00000180: dadd 90bc 823f 39be 2aa5 7f3c 747e 74be
00000190: 9e93 07be 6493 0bbe 1ddd ebbd 054c 54bd
000001a0: d40f aabd bacd c3bd ead8 8fbe 8fb4 1bbe
000001b0: 047d cabd fa3f d1bd 1df9 ab38 c1f0 a4bc
000001c0: 51d8 1abd 9d83 01be 5dbc 31bd 42e8 7ebd
000001d0: 2ec8 9dbb e062 9cbd 0d6b 553d 5fad c0bd
000001e0: cb0f 5fbe 6100 22be c691 b1bd f339 debd
000001f0: 3299 89be eee7 83be 37d1 75be 70ad 64be
00000200: b40f 603d 014d 273d c076 453d 6a90 99bc
00000210: 73a9 da3d f09f 38bd 26f9 2cbe 67a6 a0bd
00000220: cd18 f3bd 7bd5 893d 2e39 e33c 3aa2 83bd
00000230: ae1a 143c f8c2 d7bd b3ee debd c7e0 f1bd
00000240: febe 6fbd ce7b babd ffe2 273d 752c 1bbe
00000250: 389f f0bd 5ad4 b0bd 9517 39be 29b9 40be
00000260: 3108 c1bd addf 8dbd 5984 dcbd 53d5 85bd
00000270: 1c55 96bd f396 3cbe 7a71 36be 1290 013d
00000280: 7c82 acbd f5f3 5ebd 1449 bd3a bdee 14be
00000290: e8b1 83be 8225 5dbe 02df 81be 08f2 2fbe
000002a0: 75ec 80be e185 88be 840f e0bd 5d8c 74be
000002b0: ef62 f8bc be9d c73d 713a 02bd 4d4f 91bd
000002c0: d829 a3bd 5cfb 37bd cfbf 0cbe 36e4 3bbd
000002d0: 1975 0cbe 9b64 90bd 1797 77bc fbb6 66bd
000002e0: 064a b7bc f5f9 37bd 1792 163d 54f0 91be
000002f0: e8af 94bd df58 d0bd 91f4 81bd 0bfb 1fbe
00000300: 1442 16be db5d 34bd eb3f 55be cb8f 0ebe
00000310: a8cc f5bc db97 30be 00f0 b5bd c491 3bbe
00000320: 9236 e13b 3962 4abe e7e6 fcbc 35af 11be
00000330: 3b53 80bd a9dd f3bd 24f5 76bd eccb 22be
00000340: 0514 e5bd 37af 64be fda0 28be 9ddc dcbd
00000350: b83d 61be e559 f6bd f0aa 71be 3ad4 e9bd
00000360: 9f70 4cba c063 aebc 3ff5 48bd 8ded 28bd
00000370: 574d 04be fa93 213d 2c42 85bd 83a3 2cbe
00000380: b8b1 27be 7670 d2bb 1b8f 8cbb 6818 a53d
00000390: 7c1d 3a3d 5561 8cbd 3a9c d6bd efe7 febd
000003a0: 3113 5cbd f2b8 5abc e1a3 05be 8bb1 acbc
000003b0: f478 29be ebbf 83bd 12d8 7abe 3560 e4bd
000003c0: c8e0 23be 6649 9abd c809 27be c66e c2bd
000003d0: 1237 88bd 119a 83be 6c03 6abd c0e6 a9bd
000003e0: b6a4 32be ad5f 2ebe 5295 0ebe 9357 bebd
000003f0: 4e7f 67be c8fa 2abe 40e0 60be f9a2 5abe
